net_f2.pth (torch, 795215 bytes, 7 tensors)

weight f4 [256, 1]
0	0x3d53c2ef	0.051699575
1	0xbedef05f	-0.43542764
2	0x3d195ea7	0.037443783
3	0x3edef0a5	0.43542972
4	0xbcc117a5	-0.023570845
5	0xbe4475cf	-0.19185565
6	0xbe6b44b5	-0.22975428
7	0x3d00c9c1	0.031442408
8	0xbc831ac5	-0.016003976
9	0x3ed7c77c	0.42144382
10	0xbecae034	-0.39624178
11	0xbd3539e8	-0.044244677
12	0xbdb66ee6	-0.08907871
13	0x3d0e0920	0.03467667
14	0x3d43c43d	0.04779457
15	0xbde6d1d6	-0.11270492
16	0x3c00bd49	0.007857629
17	0xbdaceaf0	-0.08443248
18	0xbe30ca06	-0.17264566
19	0xbf6da3ca	-0.9282805
20	0xbe2a8a9e	-0.16654441
21	0xbf03ebca	-0.5153166
22	0xbeb5f2ca	-0.35536796
23	0xbc874540	-0.016512513
24	0xbd3619bb	-0.044458132
25	0xbeac3d02	-0.33640295
26	0xbf1b66df	-0.60703844
27	0x3e928fc3	0.28625306
28	0x3e4923c4	0.1964255
29	0xbd7da066	-0.061920546
30	0xbe901525	-0.28141132
31	0xbf0e7826	-0.5565208
32	0x3e708248	0.23487198
33	0x3dfa8272	0.12231912
34	0x3f453ac2	0.7704278
35	0x3d7f8ffa	0.062393166
36	0x3e33e8a7	0.17569219
37	0x3f3b2bfe	0.73114
38	0xbe8381c8	-0.25684953
39	0xbca2afc0	-0.019859195
40	0xbf06a1ae	-0.52590454
41	0x3e972ff1	0.29528764
42	0x3e7157b3	0.23568611
43	0xbf07322e	-0.52810943
44	0xbd9bd159	-0.07608289
45	0x3f0f9044	0.56079507
46	0xbe972eb0	-0.29527807
47	0xbe627323	-0.22114234
48	0x3f09010e	0.53517234
49	0xbebc9aa6	-0.36836737
50	0x3f0de337	0.5542483
51	0xbeafb0ef	-0.34314677
52	0x3e497df1	0.19676949
53	0xbe085904	-0.13315207
54	0x3e99f8c3	0.30072603
55	0x3e800890	0.25006533
56	0xbe8eae97	-0.27867576
57	0xbcfd9192	-0.030953202
58	0xbe8561cb	-0.26051173
59	0x3e99dcff	0.3005142
60	0x3dfcc9e3	0.12343194
61	0x3f26841c	0.6504533
62	0x3cf92c40	0.030416608
63	0x3dc6f832	0.09715308
64	0x3edb8959	0.42878225
65	0x3d93eb8a	0.0722266
66	0xbeb20ce2	-0.34775454
67	0xbf1fea9f	-0.6246738
68	0xbee63b31	-0.44967034
69	0xbdc6bc80	-0.09703922
70	0x3d631d40	0.055447817
71	0xbeb9a154	-0.36255896
72	0xbf2436b5	-0.64145976
73	0x3ded3660	0.11582637
74	0x3f08f691	0.5350123
75	0xbe3ee390	-0.18641496
76	0x3ea8fdd0	0.33006144
77	0xbe1fef3e	-0.15618607
78	0xbec6f6ff	-0.38860318
79	0x3d47be70	0.0487656
80	0xbf0fe916	-0.56215036
81	0x3d5146a3	0.051092755
82	0xbefd5877	-0.49481556
83	0xbead34c3	-0.33829316
84	0xbe9da3bf	-0.3078899
85	0x3e9297d0	0.2863145
86	0xbe3b5273	-0.1829317
87	0xbe98c692	-0.29838997
88	0x3ee1065b	0.4395016
89	0xbeba1a3b	-0.36348137
90	0xbdb9c0eb	-0.09069999
91	0x3efc9b6f	0.49337336
92	0xbe852933	-0.26007995
93	0x3e245ff7	0.16052233
94	0xbdc279bf	-0.094958775
95	0xbe92f79e	-0.28704542
96	0x3e944d9e	0.28965467
97	0x3e1319d0	0.14365315
98	0xbd6d9a80	-0.05800867
99	0xbf0a4e2d	-0.54025537
100	0xbe0905c2	-0.13381103
101	0x3d8a2a1c	0.06746313
102	0x3e9f300d	0.31091347
103	0xbead2a99	-0.33821562
104	0xbebcaf2a	-0.3685239
105	0x3e94a070	0.29028654
106	0x3e608f80	0.21929741
107	0xbd216ef3	-0.03941245
108	0x3edb29a2	0.428052
109	0xbd8a677c	-0.06758019
110	0x3ce501a4	0.027954884
111	0xbee825f2	-0.4534145
112	0xbee4581e	-0.44598478
113	0xbe3664df	-0.17811917
114	0xbd1c42dd	-0.038149703
115	0x3de0dc90	0.10979569
116	0x3ef196ec	0.47185457
117	0x3ec03c54	0.37546027
118	0x3e3ea768	0.18618548
119	0xbe3a3808	-0.18185437
120	0xbdd7c797	-0.105361156
121	0xbe64f1ce	-0.22357866
122	0x3e358a27	0.17728482
123	0x3de74940	0.11293268
124	0x3dd4464b	0.1036497
125	0xbe275be8	-0.16343653
126	0x3f026fca	0.50951827
127	0xbe689643	-0.2271357
128	0x3d458342	0.04822088
129	0xbc95002d	-0.01818856
130	0x3e93b1f7	0.28846714
131	0x3f1b72ee	0.60722244
132	0xbcaee780	-0.021350622
133	0x3e40fa3f	0.18845461
134	0xbf062a9e	-0.5240878
135	0xbe468830	-0.19387889
136	0xbf0360d7	-0.5131964
137	0x3f06f3a4	0.52715516
138	0xbe9d7050	-0.3074975
139	0xbed2da98	-0.411824
140	0xbe3e3ee0	-0.18578672
141	0x3d6cc83a	0.05780814
142	0xbe66f6e0	-0.22555113
143	0x3e83485e	0.2564115
144	0xbf034f22	-0.5129262
145	0x3ed66f70	0.41881895
146	0xbf0cff9e	-0.5507754
147	0x3f006f05	0.501694
148	0xbe85ec40	-0.26156807
149	0xbe90d0b7	-0.28284237
150	0x3db6da61	0.08928371
151	0xbd94575d	-0.07243226
152	0xbd219f60	-0.039458632
153	0xbf14a7f6	-0.5806879
154	0xbd8e34ca	-0.069436625
155	0x3e8edd59	0.2790325
156	0xbede57a8	-0.4342625
157	0x3cf8b05d	0.030357534
158	0x3e3d9b33	0.18516235
159	0xbde5e62e	-0.11225544
160	0xbbe7c90f	-0.0070735286
161	0x3c1bb993	0.009504694
162	0x3e398947	0.18118773
163	0x3ee228e9	0.44171837
164	0xbe8daf4e	-0.2767281
165	0xbec0f987	-0.37690374
166	0xbe79a9d0	-0.24381185
167	0x3ef1059d	0.47074595
168	0xbedee78c	-0.4353603
169	0xbe481040	-0.19537449
170	0xbed1a139	-0.40943316
171	0x3f23b142	0.6394235
172	0xbdda1da8	-0.10650188
173	0x3d1310e0	0.035904765
174	0x3bbf9feb	0.005847921
175	0x3d468795	0.048469145
176	0x3e5390d3	0.20660715
177	0xbe31e630	-0.17372966
178	0x3ec35ee0	0.3815832
179	0xbd90f320	-0.070776224
180	0x3d9c9173	0.0764493
181	0x3e365b52	0.17808273
182	0xbe026d19	-0.1273693
183	0xbcdf0209	-0.02722265
184	0xbec6be8d	-0.38817254
185	0xbe399470	-0.1812303
186	0xbe070f66	-0.13189468
187	0xbe220727	-0.15823041
188	0xbe340c49	-0.17582811
189	0x3e575c20	0.21031237
190	0xbeb24814	-0.34820616
191	0x3ed8127c	0.42201602
192	0x3e511410	0.2041781
193	0xbcc524da	-0.024065424
194	0x3e84a102	0.2590409
195	0xbed67bbc	-0.41891277
196	0x3d8018fd	0.06254766
197	0xbe93313c	-0.287485
198	0xbc9dd5e4	-0.01926703
199	0x3de13875	0.109970964
200	0x3e6a67e0	0.22891188
201	0x3db96bb2	0.090537444
202	0xbf04cc3b	-0.5187413
203	0x3f6ee6c8	0.93320894
204	0xbe71c57d	-0.23610492
205	0xbd0bc980	-0.034127712
206	0xbe14c290	-0.14527345
207	0xbe859d61	-0.26096633
208	0x3dc60678	0.096692026
209	0xbea09cb4	-0.31369555
210	0xbe462425	-0.19349726
211	0xbe4e79ca	-0.20163646
212	0x3e9be3d8	0.30447268
213	0xbef0a3be	-0.46999925
214	0xbd761baf	-0.060084995
215	0xbf11e7e7	-0.5699448
216	0xbe2d4a0e	-0.16922781
217	0xbf376eef	-0.71653646
218	0x3e4c03b0	0.19923282
219	0xbdbbce28	-0.091701806
220	0x3e0fb1a5	0.1403261
221	0xbe01bb53	-0.12669115
222	0xbe7c2e7c	-0.24627107
223	0x3e1524ba	0.14564791
224	0xbc931d4d	-0.017958308
225	0x3df28540	0.11841822
226	0xbeabd4ef	-0.33560893
227	0xbebfe0b2	-0.37476116
228	0x3e852744	0.2600652
229	0x3d8675b0	0.06565416
230	0xbeff1dfa	-0.49827558
231	0xbe65c19c	-0.22437137
232	0xbee16bb2	-0.44027478
233	0x3f1f7ef4	0.6230309
234	0x3f0fbb62	0.561453
235	0x3e895448	0.26822114
236	0xbdddda59	-0.10832662
237	0x3f25c670	0.64755917
238	0x3f0b1282	0.54325116
239	0xbe58d4b7	-0.21174894
240	0xbe9ca8b9	-0.30597475
241	0xbe481789	-0.19540228
242	0x3e2e539b	0.1702408
243	0x3ec1095d	0.37702456
244	0x3e4f4c73	0.20244007
245	0xbeeadc37	-0.45871136
246	0xbe3b77fc	-0.18307489
247	0xbdff1998	-0.124560535
248	0xbef7bfcd	-0.4838852
249	0x3e0e2171	0.13879944
250	0x3eef19ac	0.46699274
251	0x3ea94d28	0.33066678
252	0x3ece521d	0.40297022
253	0xbef22f29	-0.47301605
254	0xbe617c87	-0.2202016
255	0xbf0644d3	-0.5244877

bias f4 [256]
0	0xbeefcfe0	-0.46838284
1	0xbf8fb0d2	-1.1225836
2	0xbf8d6684	-1.104691
3	0xbf023f73	-0.50878066
4	0x3e9bc230	0.3042159
5	0x3e34375c	0.17599243
6	0x3e385e52	0.1800473
7	0xbf3c66c9	-0.7359434
8	0x3d046a39	0.032327864
9	0xbe7c7660	-0.24654531
10	0xbe10d3d5	-0.14143308
11	0xbe45aea2	-0.19304898
12	0xbf2b074c	-0.6680801
13	0xbeb51cf8	-0.35373664
14	0xbebb4c8b	-0.36581835
15	0xbf16f1f2	-0.5896293
16	0xbdd02af8	-0.10164446
17	0xbf1550c9	-0.58326393
18	0xbfa39935	-1.278113
19	0x3e9ae453	0.30252323
20	0xbe4c69fa	-0.19962302
21	0xbf3365e0	-0.70077324
22	0x3ef8824f	0.48536918
23	0xbee5b148	-0.44861817
24	0xbf0fe2a5	-0.5620521
25	0x3e2f4cdb	0.17119162
26	0xbeca992b	-0.39569983
27	0xbf8cb94e	-1.099405
28	0x3e9bc744	0.30425465
29	0x3d6a4f1a	0.057204343
30	0x3efe47f1	0.49664262
31	0x3e8f0353	0.27932224
32	0xbf36f9e4	-0.7147505
33	0x3d9ebad1	0.07750476
34	0xbf629590	-0.88509464
35	0xbe904047	-0.2817404
36	0xbf41e90d	-0.7574623
37	0xbf5c4ee2	-0.86057866
38	0x3d8e342a	0.06943543
39	0xbe424d60	-0.18974829
40	0xbeb3358c	-0.3500179
41	0xbf4d6c3f	-0.80243295
42	0x3e968435	0.2939774
43	0xbe58484d	-0.2112133
44	0x3e0b2997	0.13590084
45	0xbf14b72a	-0.58091986
46	0xbf02d5b6	-0.51107347
47	0xbf0a101c	-0.5393083
48	0xbedf95a1	-0.43668845
49	0xbdc1a100	-0.094545364
50	0xbf14624d	-0.57962495
51	0x3e882e9c	0.2659806
52	0x3eb06549	0.34452274
53	0xbf57d955	-0.84316
54	0xbe2845a0	-0.1643281
55	0xbf15a487	-0.58454174
56	0xbe462cb9	-0.19352998
57	0xbf15d203	-0.5852358
58	0x3cfccf8b	0.030860683
59	0x3eac85db	0.33695874
60	0xbf6b03df	-0.9180278
61	0xbf6e20ee	-0.93018997
62	0xbf535492	-0.8255092
63	0xbf3d0e17	-0.73849624
64	0xbfa26fb1	-1.2690336
65	0x3e0d1a23	0.13779502
66	0xbe71a98f	-0.23599838
67	0x3d2754ff	0.040852543
68	0xbe944178	-0.289562
69	0xbe8e46a0	-0.27788258
70	0xbef83180	-0.48475266
71	0xbf7e152a	-0.99251044
72	0xbc2b1896	-0.010442873
73	0xbe3d5068	-0.18487704
74	0xbf79bf9e	-0.9755801
75	0xbe892cb4	-0.26791918
76	0xbf146cf4	-0.5797875
77	0xbf05f0a6	-0.52320325
78	0xbeca0464	-0.39456475
79	0xbf922fd9	-1.1420852
80	0xbd5c8e37	-0.053846564
81	0xbf40abfc	-0.7526243
82	0x3e83f72b	0.25774512
83	0xbfa08aad	-1.254232
84	0xbdf40885	-0.119156875
85	0xbf2bdce4	-0.6713393
86	0x3eacf035	0.33777013
87	0x3d91789b	0.07103082
88	0xbf13d7a1	-0.577509
89	0xbdc6b1e0	-0.09701896
90	0xbedef5bb	-0.43546852
91	0xbf7c27ed	-0.9849842
92	0xbea522db	-0.32253155
93	0x3d0a6c3d	0.03379463
94	0x3f039cb7	0.51411
95	0xbf159367	-0.58428043
96	0xbf44d0b6	-0.7688097
97	0xbf582961	-0.8443814
98	0xbf7fe6b4	-0.999614
99	0x3e1fe414	0.15614349
100	0xbf64ac05	-0.8932498
101	0x3e9da86b	0.30792555
102	0xbecd2296	-0.4006545
103	0xbf5ff19d	-0.8747805
104	0xbdeb488c	-0.114884466
105	0xbf50e533	-0.8159973
106	0xbec42ae0	-0.3831396
107	0xbd9635b1	-0.073344596
108	0xbf4a7fe8	-0.7910142
109	0xbf341606	-0.70346105
110	0xbf52444b	-0.82135457
111	0xbd7b5954	-0.061364487
112	0xbf9a1aea	-1.2039464
113	0xbf28ddcf	-0.65963453
114	0xbed89cfd	-0.42307273
115	0xbf46e770	-0.77696896
116	0xbf288cae	-0.6583966
117	0xbef4d844	-0.47821248
118	0xbf7d55e6	-0.98959196
119	0x3e5b6b26	0.21427593
120	0xbe474be3	-0.19462542
121	0x3eb1d717	0.34734413
122	0x3d3b0988	0.045663387
123	0xbeaee52c	-0.3415922
124	0xbec778b1	-0.38959268
125	0x3da76a64	0.08174589
126	0xbf4ac4a5	-0.79206306
127	0xbe94452f	-0.28959033
128	0xbf13570d	-0.57554704
129	0x3ddf5c9f	0.10906338
130	0xbdd21861	-0.10258556
131	0xbf7ed8b4	-0.9954941
132	0xbf2def5a	-0.67943347
133	0xbeb88cf1	-0.3604503
134	0xbf180ae8	-0.5939164
135	0xbe650a84	-0.22367293
136	0xbee565eb	-0.4480432
137	0xbf349189	-0.7053457
138	0xbf9306bb	-1.1486429
139	0xbef33ed7	-0.4750888
140	0xbf78291c	-0.9693773
141	0xbeeec5b8	-0.46635222
142	0xbf90a6ec	-1.130094
143	0x3e5c0a96	0.21488413
144	0xbe2cb497	-0.16865765
145	0xbf503496	-0.8133024
146	0x3e54d012	0.20782498
147	0xbf1ff7f9	-0.6248775
148	0xbf1b4ed6	-0.6066717
149	0xbf907765	-1.1286436
150	0x3e30eafe	0.17277142
151	0xbf3bb765	-0.7332671
152	0xbf145798	-0.5794616
153	0xbf67726e	-0.9040898
154	0xbf8b08d5	-1.086207
155	0xbf32a19a	-0.69777834
156	0xbf41f388	-0.75762224
157	0xbf2a1691	-0.66440684
158	0x3d39460a	0.04523281
159	0x3dd44a8f	0.103657834
160	0xbf2129df	-0.62954515
161	0xbf3a43b3	-0.7275955
162	0xbeac2b65	-0.33626857
163	0xbef2c31b	-0.4741448
164	0xbebddf74	-0.37084544
165	0xbe38704e	-0.18011591
166	0xbdc4ad7f	-0.09603404
167	0xbed44583	-0.41459283
168	0xbf07bdd2	-0.5302402
169	0xbe87f6e0	-0.26555538
170	0xbf35f6b6	-0.71079576
171	0xbf3db9bc	-0.74111533
172	0xbf969833	-1.1765198
173	0x3e21e882	0.15811351
174	0xbf60389c	-0.8758638
175	0xbf057b54	-0.5214131
176	0xbf547f07	-0.8300633
177	0xbf28c4d4	-0.65925336
178	0xbf61e232	-0.8823577
179	0xbecbdac0	-0.3981533
180	0xbed8cf90	-0.42345858
181	0xbf033d53	-0.5126545
182	0xbedf910a	-0.43665344
183	0xbf21e162	-0.6323453
184	0xbe1c1676	-0.15242943
185	0xbe5e7450	-0.21724057
186	0xbf3545a8	-0.7080941
187	0xbf6ba0b2	-0.92042077
188	0x3d495277	0.04915091
189	0xbf783a60	-0.96964073
190	0xbf47211c	-0.77784896
191	0xbf0a1906	-0.5394443
192	0xbf6b648a	-0.91950285
193	0xbf2d508e	-0.6770104
194	0xbf1bd40d	-0.6087044
195	0xbf3cd2a8	-0.73758936
196	0xbe2e4bc2	-0.17021087
197	0xbf59def8	-0.8510585
198	0xbf164cbe	-0.5871085
199	0xbef87d66	-0.4853317
200	0xbeb1ef2c	-0.34752786
201	0xbf04d047	-0.51880306
202	0xbfac446d	-1.3458382
203	0xbf6fc8f6	-0.9366602
204	0xbf6c145b	-0.9221856
205	0xbf73c998	-0.9522948
206	0xbe9e1828	-0.30877805
207	0x3e8e6efc	0.2781905
208	0xbf805b79	-1.0027915
209	0xbf4e4818	-0.80578756
210	0xbd933d18	-0.07189387
211	0x3ea69c2b	0.32541022
212	0x3ee53aac	0.44771326
213	0xbe4fd763	-0.20297007
214	0xbf9486a5	-1.160359
215	0x3dae46d1	0.08509601
216	0xbcb7e81e	-0.02244955
217	0x3e89d6c3	0.26921663
218	0xbef6e498	-0.48221278
219	0x3e01c4e6	0.12672767
220	0xbf053acf	-0.5204286
221	0xbf6e4d63	-0.9308683
222	0x3cd85103	0.026405817
223	0xbf0acc4b	-0.54217976
224	0xbf4536bd	-0.7703665
225	0xbf754a10	-0.95816135
226	0xbe6798fc	-0.22616953
227	0xbfa18cf7	-1.2621144
228	0xbed95d88	-0.4245417
229	0x3e6a20dc	0.22864097
230	0xbe8c1586	-0.2736017
231	0x3f007e83	0.5019304
232	0xbe5f8403	-0.21827702
233	0xbf21bb54	-0.63176465
234	0xbf5ca416	-0.86187875
235	0xbf062270	-0.523963
236	0xbddddabe	-0.108327374
237	0xbf788f34	-0.9709351
238	0xbe339f1f	-0.17541169
239	0xbee98301	-0.4560776
240	0xbec39bbc	-0.38204753
241	0xbf11d1ab	-0.5696055
242	0x3c96d4c4	0.018412001
243	0xbe34eee1	-0.1766925
244	0xbe964b66	-0.293544
245	0xbe13328a	-0.14374748
246	0xbf3e19e2	-0.74258244
247	0xbe9ef82c	-0.31048715
248	0xbbc35e0a	-0.005962138
249	0xbf1ebaff	-0.62004083
250	0xbf4afdec	-0.79293704
251	0xbf647b0e	-0.89250267
252	0xbf96bc44	-1.1776204
253	0x3e2b5a1a	0.1673359
254	0x3e838568	0.25687718
255	0x3e944ab6	0.2896325

weight f4 [512, 256]
0	0xbf0c0bb8	-0.5470538
1	0xbf230ef6	-0.63694704
2	0xbf240558	-0.64070654
3	0xbf1a2b1a	-0.6022202
4	0xbf14b0cd	-0.58082277
5	0xbf0afeaf	-0.54294866
6	0xbf1b2168	-0.6059785
7	0xbf14ba2d	-0.5809658
8	0xbf1f8dbf	-0.6232566
9	0xbf2112f8	-0.6291957
10	0xbf27cfe5	-0.65551597
11	0xbf246191	-0.64211375
12	0xbf1b0816	-0.60559213
13	0x3c58d350	0.013233975
14	0xbf1b3d57	-0.6064047
15	0xbf27de72	-0.655738
16	0xbf1242ad	-0.5713299
17	0xbf0e4c04	-0.5558474
18	0xbf0d4105	-0.55177337
19	0xbf103a19	-0.5633865
20	0xbf1e1b1b	-0.6176011
21	0xbd113466	-0.03545036
22	0xbf20a7ad	-0.6275585
23	0xbbca9340	-0.0061821043
24	0xbf1811e1	-0.5940228
25	0xbf21996e	-0.6312474
26	0xbf12d180	-0.5735092
27	0xbf0f32e6	-0.5593704
28	0xbf1c3668	-0.6102052
29	0xbf0c6c16	-0.54852426
30	0xbf0c863a	-0.54892313
31	0xbf126a62	-0.5719358
32	0xbf124712	-0.57139695
33	0xbf188e30	-0.5959196
34	0x3ba43880	0.005011618
35	0xbf123530	-0.5711241
36	0xbf265882	-0.649788
37	0x3c821158	0.01587741
38	0xbf1952d6	-0.5989202
39	0x3d4f946c	0.050678656
40	0xbf0a1601	-0.53939825
41	0xbf0bcf40	-0.54613113
42	0xbf132e1a	-0.5749222
43	0xbf1e78f1	-0.6190329
44	0xbf0c213d	-0.5473822
45	0xbd0121c4	-0.031526342
46	0xbf116294	-0.56791043
47	0xbf1798d9	-0.592176
48	0xbf137157	-0.5759482
49	0xbf23e4e7	-0.6402115
50	0xbf108b39	-0.56462437
51	0xbf21d7b5	-0.6321977
52	0xbf19930b	-0.59989995
53	0xbf0a447d	-0.54010755
54	0xbf1a413a	-0.6025578
55	0xbf0f2bca	-0.5592619
56	0xbf113a0f	-0.56729215
57	0xbf18aad4	-0.59635663
58	0xbf1db3f0	-0.6160269
59	0xbf09c585	-0.53817016
60	0xbf18c78d	-0.5967949
61	0xbc32c860	-0.010912031
62	0xbcace6b0	-0.021106094
63	0xbf118680	-0.56845856
64	0xbf20813e	-0.6269721
65	0xbf0a3f1a	-0.54002535
66	0xbf1435fa	-0.5789486
67	0xbf19b83d	-0.6004675
68	0xbf286252	-0.65775025
69	0x3ca294ec	0.019846402
70	0x3bf3dae0	0.0074418634
71	0xbd5f79bc	-0.054559454
72	0xbf150683	-0.5821306
73	0x3c1f6a60	0.009729952
74	0xbf20c447	-0.62799495
75	0xbd7bfe76	-0.06152197
76	0xbccbe6e0	-0.024890363
77	0xbf273eb8	-0.65330076
78	0xbf164bb0	-0.5870924
79	0xbf250b36	-0.6447023
80	0xbf20e9a3	-0.628565
81	0xbf15e269	-0.585486
82	0xbf0d7dd8	-0.5527015
83	0xbf1b58da	-0.6068245
84	0xbf28b3d7	-0.65899414
85	0x3d7baefa	0.061446168
86	0xbf1a2005	-0.6020511
87	0xbf0d61a6	-0.55227125
88	0xbf1fbb60	-0.62395287
89	0xbf10d3f0	-0.5657339
90	0xbf14351d	-0.57893544
91	0xbf2991c4	-0.66238046
92	0xbf267386	-0.65020025
93	0xbf0fc0fd	-0.5615385
94	0xbf16ae0a	-0.5885931
95	0xbf27b8b5	-0.65516216
96	0xbf1d28b9	-0.6139026
97	0xbf197e0d	-0.59957963
98	0xbd3bb4fc	-0.045826897
99	0xbf25f3a1	-0.64824873
100	0xbf1a932f	-0.60380834
101	0xbf1e4f9d	-0.6184023
102	0xbf21c232	-0.63186944
103	0xbf1aa39a	-0.60405886
104	0xbf27a29d	-0.65482503
105	0xbf1a9894	-0.60389066
106	0xbd03cad8	-0.03217587
107	0xbf15e751	-0.58556086
108	0xbf10be98	-0.56540823
109	0xbf159845	-0.5843547
110	0xbf1e0cd9	-0.61738354
111	0xbf262d66	-0.6491302
112	0xbf157381	-0.5837937
113	0xbf0e3f44	-0.55565286
114	0xbf15f01c	-0.585695
115	0x3d68abc0	0.05680442
116	0xbb918820	-0.004441276
117	0x3c0f41d8	0.008743726
118	0x3d6d101c	0.05787669
119	0xbf1afbf8	-0.60540724
120	0xbf22f31d	-0.6365221
121	0xbf1c1709	-0.6097265
122	0xbf1a946d	-0.6038273
123	0x3cefb200	0.029259682
124	0xbf1b7df1	-0.60739046
125	0xbf0e0ced	-0.55488473
126	0xbf0d38e0	-0.5516491
127	0xbf1f79a1	-0.62294966
128	0xbf176aba	-0.59147227
129	0xbf241678	-0.64096785
130	0xbf21dbb9	-0.63225895
131	0xbd45f656	-0.048330627
132	0xbaa6a180	-0.0012712926
133	0xbf1a47a6	-0.60265577
134	0x3cc429e4	0.023945756
135	0xbf240d1d	-0.6408251
136	0xbf18adea	-0.5964037
137	0xbf0fd337	-0.56181663
138	0xbf0eb486	-0.55744207
139	0xbf1c5cbd	-0.6107901
140	0xbceeb748	-0.02914013
141	0xbf1fcffa	-0.6242672
142	0xbee7225d	-0.45143405
143	0xbf0cea6a	-0.5504519
144	0xbf0bb748	-0.5457654
145	0xbd223e3e	-0.03961014
146	0xbf1a9fbb	-0.6039998
147	0xbf119468	-0.56867075
148	0x3d75e21e	0.060030095
149	0xbf12e74a	-0.5738417
150	0xbf16eb23	-0.5895254
151	0xbf2846ff	-0.6573333
152	0x3d72b8ee	0.059258394
153	0x3d3d5c96	0.046230875
154	0xbf1c557b	-0.6106793
155	0xbf164b08	-0.5870824
156	0x3d18ce78	0.03730628
157	0xbf0a64f3	-0.54060286
158	0xbf12f454	-0.57404065
159	0xbf16b237	-0.58865684
160	0xbf1800d7	-0.5937628
161	0xbf289c82	-0.6586381
162	0xbf104bc1	-0.5636559
163	0xbf210a1f	-0.6290607
164	0xbf17a67d	-0.59238416
165	0xbf26c80e	-0.6514901
166	0xbf152adf	-0.5826854
167	0xbf1ced75	-0.6129983
168	0x3cf12490	0.02943638
169	0x3d090f3e	0.0334618
170	0xbf188813	-0.5958263
171	0x3c81e798	0.015857503
172	0xbf271246	-0.6526226
173	0xbf1a3bce	-0.60247505
174	0xbf206c96	-0.6266569
175	0xbf20e9d2	-0.6285678
176	0xbf28458f	-0.6573114
177	0x3cd46fc8	0.025932208
178	0xbc934c30	-0.017980665
179	0xbd29a12c	-0.04141347
180	0xbf186e9d	-0.5954378
181	0xbf1afc1a	-0.60540926
182	0xbf27c324	-0.65532136
183	0xbf223245	-0.63357955
184	0xbf0a9aaf	-0.5414228
185	0x3bdeced0	0.0067995563
186	0xbf0de14b	-0.55421895
187	0xbf0cd1dd	-0.55007726
188	0xbf232259	-0.63724285
189	0xbd52ca68	-0.05146256
190	0x3c264a70	0.010149583
191	0xbf25633f	-0.6460456
192	0xbf0ad1d2	-0.5422641
193	0xbf207353	-0.6267597
194	0xbf09ef51	-0.5388079
195	0x3b5fe4c0	0.0034163445
196	0xbf1b0574	-0.60555196
197	0xbd24667c	-0.0401368
198	0xbf1d9f71	-0.61571413
199	0xbf135cd4	-0.5756352
200	0xbcbbd8dc	-0.022930555
201	0xbf0c0a17	-0.54702896
202	0xbf24d7ff	-0.64392084
203	0xbcdd567c	-0.027018778
204	0xbf0e696c	-0.5562961
205	0xbd0cb300	-0.034350395
206	0x3d7384ea	0.05945293
207	0xbf2182c4	-0.6309016
208	0xbf282ffc	-0.6569822
209	0xbcd16390	-0.02556017
210	0xbf1710ee	-0.5901021
211	0xbf1c2c0f	-0.6100473
212	0xbf253463	-0.6453306
213	0xbf226597	-0.63436264
214	0xbf1c70ad	-0.6110943
215	0xbf22c406	-0.6358036
216	0xbf1d56c2	-0.61460507
217	0xbf1ec6d8	-0.6202216
218	0x3c024508	0.007951029
219	0xbf0edf51	-0.55809504
220	0xbf0cf70a	-0.5506445
221	0xbf209c7f	-0.62738794
222	0xbf220a8b	-0.6329734
223	0xbf158187	-0.5840077
224	0xbf18d40b	-0.5969855
225	0x3d475ed0	0.048674405
226	0xbf112e9d	-0.5671175
227	0xbf14a741	-0.5806771
228	0x3d4d0722	0.05005563
229	0xbf0a0937	-0.5392031
230	0xbf1d6391	-0.6148005
231	0xbf1505f4	-0.5821221
232	0xbf0b058c	-0.5430534
233	0x3bc62310	0.0060466602
234	0xbd4b7850	-0.049675286
235	0xbf299677	-0.66245216
236	0xbf2671c4	-0.6501734
237	0x3cc82a08	0.024434105
238	0xbf1fef23	-0.6247427
239	0xbf262134	-0.64894414
240	0xbf12fea7	-0.5741982
241	0xbf15f0ca	-0.5857054
242	0xbf114edf	-0.5676097
243	0xbf24cad8	-0.64372015
244	0xbf0f96c2	-0.56089413
245	0xbf196514	-0.5991986
246	0xbf20c180	-0.6279526
247	0xbf22f81d	-0.6365984
248	0xbf232f76	-0.63744295
249	0xbf0e38e1	-0.5555554
250	0x3ccbc1b0	0.02487263
251	0x3d57cb26	0.05268397
252	0xbf265488	-0.64972734
253	0xbf200552	-0.6250812
254	0xbf133fe9	-0.57519394
255	0xbf1db37f	-0.61602014

bias f4 [512]
0	0xbf158ec2	-0.58420956
1	0xbbb34720	-0.0054711252
2	0xbf135bac	-0.57561755
3	0xbf02db94	-0.511163
4	0xbed9188f	-0.4240155
5	0xbcfbc7f4	-0.030734994
6	0xbee7d03a	-0.45276052
7	0xbf0ca1fc	-0.5493467
8	0xbee57f77	-0.4482381
9	0xbede49a3	-0.43415555
10	0xbef40eb7	-0.47667477
11	0xbd6d4d56	-0.05793508
12	0xbf2762ea	-0.65385306
13	0xbf261399	-0.64873654
14	0xbefda0af	-0.49536654
15	0xbf2461ad	-0.6421154
16	0xbed69a65	-0.4191467
17	0xbf026177	-0.5092997
18	0xbefa3f9d	-0.48876658
19	0xbee42fa1	-0.44567588
20	0xbf152db4	-0.5827286
21	0xbf2590f5	-0.6467431
22	0xbf1a50d6	-0.60279596
23	0xbeca8873	-0.39557227
24	0xbed8ad26	-0.42319602
25	0xbf13ba64	-0.57706285
26	0xbd06f97c	-0.03295277
27	0xbd020ba2	-0.031749375
28	0xbed9073a	-0.42388326
29	0xbf2741df	-0.65334886
30	0xbf136c3e	-0.5758704
31	0xbed99f0b	-0.42504153
32	0xbf13d5eb	-0.5774829
33	0xbf0fa81f	-0.5611591
34	0xbec97529	-0.393472
35	0xbed042eb	-0.40676054
36	0xbecae755	-0.39629617
37	0xbf1c145c	-0.60968566
38	0xbf0e8f5d	-0.55687505
39	0xbf1cfc67	-0.61322635
40	0xbeef525e	-0.4674253
41	0xbf132aef	-0.57487386
42	0xbf167550	-0.58772755
43	0xbee9e7f1	-0.4568477
44	0xbf18d3bf	-0.596981
45	0xbee7e8d1	-0.45294812
46	0x3b39a1c0	0.002832517
47	0xbeee8a3b	-0.46589836
48	0xbee3563d	-0.44401732
49	0xbef351af	-0.47523257
50	0xbf00cd9b	-0.5031373
51	0xbc31e1d8	-0.010857068
52	0xbcd7e0e8	-0.02635236
53	0xbedeeeff	-0.43541715
54	0xc03c98c7	-2.9468248
55	0xc0483133	-3.128003
56	0xbef8d81a	-0.48602372
57	0xbefe587b	-0.4967688
58	0xbf185841	-0.59509665
59	0xbf1e0801	-0.61730963
60	0xbf0afd36	-0.5429262
61	0xbf221a28	-0.6332116
62	0xbedda295	-0.43288103
63	0xbed50d3f	-0.41611668
64	0xbf358ce2	-0.70918095
65	0xbf1e23e6	-0.61773527
66	0xbef9f017	-0.48815987
67	0xbef0d981	-0.47040942
68	0xbecb8c1b	-0.3975533
69	0xbecc95b6	-0.3995797
70	0xbef7bfea	-0.48388606
71	0xbc7c7b40	-0.015410244
72	0xbeca8c73	-0.3956028
73	0xbf1fdff9	-0.6245113
74	0xbf0ee526	-0.558184
75	0xbeffee16	-0.49986333
76	0xbec9e01e	-0.394288
77	0xbf210846	-0.6290325
78	0xbeed3aca	-0.46333915
79	0x3ce7e79c	0.028308682
80	0xbf16a375	-0.58843166
81	0xbf28eeca	-0.65989363
82	0xbed31c52	-0.41232544
83	0xbf1d5469	-0.61456925
84	0xbedc9008	-0.43078637
85	0xbf0fade9	-0.5612474
86	0xbf0a0f3c	-0.53929496
87	0xbf29a1a2	-0.6626226
88	0xbf2170f1	-0.6306296
89	0xbd53f810	-0.051750243
90	0x3c88ee0c	0.016715072
91	0xbec99039	-0.39367846
92	0xbf02ad92	-0.510461
93	0xbeed2ce2	-0.46323305
94	0xbf2510c2	-0.64478695
95	0xbf343e65	-0.70407706
96	0xbf1f95a6	-0.6233772
97	0xbe8ddb88	-0.27706552
98	0xbf247683	-0.64243335
99	0xbee52d23	-0.44761
100	0xbf2bc2f8	-0.67094374
101	0xbf22d31c	-0.6360338
102	0xbeb4ca4b	-0.35310587
103	0xbedda67f	-0.4329109
104	0xbeeb73c7	-0.4598677
105	0xbf088ace	-0.533368
106	0xbeca12b4	-0.39467394
107	0xbc7aa5d0	-0.015298322
108	0xbf1a1e1d	-0.602022
109	0xbf1daf37	-0.6159548
110	0xbf1019a4	-0.56289124
111	0xbe514e75	-0.20440085
112	0xbef60a60	-0.4805479
113	0xbf1dcdad	-0.6164196
114	0xbd3ea7ae	-0.04654663
115	0xbf1b92b5	-0.6077073
116	0xbed77d2b	-0.42087683
117	0xbeff6b09	-0.4988635
118	0xbc08fa68	-0.008360483
119	0xbf1813c1	-0.5940514
120	0xbf28f480	-0.6599808
121	0xbc039e08	-0.008033283
122	0xbf25af56	-0.64720666
123	0xbf0408ad	-0.5157574
124	0xbecef175	-0.40418592
125	0xbecc17a8	-0.39861798
126	0xbedbef93	-0.42956218
127	0xbd524254	-0.051332787
128	0xbec9a63a	-0.39384633
129	0xbeecf465	-0.46280208
130	0xbf23be17	-0.6396193
131	0xbe5a24ed	-0.21303149
132	0xbf241159	-0.6408897
133	0xbeddc8eb	-0.4331735
134	0xbed7575b	-0.42058834
135	0xbf25ba4d	-0.647374
136	0xbf0253f0	-0.5090933
137	0xbf037ff8	-0.5136714
138	0xbd69c7d0	-0.05707532
139	0xbef47ee0	-0.47753048
140	0xbeda0dde	-0.42588705
141	0xbf1d9c34	-0.6156647
142	0xbf1b8f06	-0.6076511
143	0xbf1403a2	-0.57818043
144	0xbf10800c	-0.56445384
145	0x3c2d6578	0.010583274
146	0xbbb54920	-0.005532399
147	0xbed4d8a3	-0.4157153
148	0xbc669fc0	-0.014076173
149	0xbef28115	-0.47364107
150	0xbeffd8eb	-0.49970183
151	0xbeea0af6	-0.45711488
152	0xbf0f0a78	-0.5587535
153	0xbedc84c1	-0.43070033
154	0xbf1edd4f	-0.6205644
155	0xbf26cdd5	-0.65157825
156	0xbf095ba0	-0.53655434
157	0xbf26fc14	-0.6522839
158	0xbeef32bf	-0.46718404
159	0xbecaa738	-0.39580703
160	0xbedf1763	-0.4357253
161	0xbedb4e29	-0.4283307
162	0xbedd3556	-0.43204755
163	0x3cddf93c	0.027096383
164	0xbf1cd26d	-0.61258584
165	0xbcd7cb54	-0.026342072
166	0xbf1b99bf	-0.6078147
167	0xbf26b26f	-0.6511602
168	0x3a08ac80	0.0005213693
169	0x3c7192a8	0.014744438
170	0xbf289fa6	-0.65868604
171	0xbed008da	-0.40631753
172	0xbf2560c0	-0.64600754
173	0xbed2a405	-0.41140762
174	0xbef7f42e	-0.48428482
175	0xbed3a262	-0.41334826
176	0xbf1e76c6	-0.61899984
177	0xbf1bf2ea	-0.6091753
178	0xbf29480b	-0.66125554
179	0xbf1d6992	-0.6148921
180	0xbf1c7ea8	-0.6113076
181	0xbf1093d0	-0.56475544
182	0xbf0dbb65	-0.55364066
183	0xbeefdcc0	-0.46848106
184	0xbee6c6fd	-0.4507369
185	0xbf0a95e9	-0.54134995
186	0xbd716c3e	-0.05894112
187	0xbf213aaa	-0.6298014
188	0xbef28f0f	-0.4737477
189	0xbf1ce144	-0.6128123
190	0xbf125f0c	-0.5717628
191	0xbefeeaf1	-0.4978862
192	0xbf199b10	-0.6000223
193	0xbedb0a37	-0.4278123
194	0xbed13f7d	-0.4086875
195	0xbd4b3cb4	-0.049618438
196	0xbecb88fb	-0.39752945
197	0xbf381ddb	-0.71920556
198	0xbef169d3	-0.4715105
199	0xbf289eb8	-0.65867186
200	0xbeccf8de	-0.4003362
201	0xbf0383b9	-0.5137287
202	0x3f181e4e	0.5942124
203	0xbf0ae128	-0.5424981
204	0xbed8bd4d	-0.42331925
205	0xbf11323b	-0.5671727
206	0xbf116812	-0.56799424
207	0xbef08ee8	-0.4698403
208	0x3bda2a40	0.0066578686
209	0xbd31e6ae	-0.043432884
210	0xbee29265	-0.44252315
211	0xbc965060	-0.018348873
212	0xbf0b108c	-0.54322124
213	0xbf2c28a6	-0.67249525
214	0xbf4a2120	-0.78956795
215	0xbf15de7f	-0.5854263
216	0xbf1343f0	-0.5752554
217	0xbf0c08be	-0.5470084
218	0xbee05c04	-0.43820202
219	0xbf1c00c5	-0.60938674
220	0xbed78e16	-0.4210059
221	0xbee7d324	-0.45278275
222	0xbd05baea	-0.03264896
223	0xbcf5d5d0	-0.03000918
224	0xbed737e5	-0.42034832
225	0xbf293c13	-0.6610729
226	0xbf20482d	-0.6261013
227	0xbecbfc5b	-0.3984097
228	0xbc13dcf0	-0.009024844
229	0xbed6d44f	-0.41958854
230	0xbef9c879	-0.4878576
231	0xbedd790a	-0.43256408
232	0xbf0fd24f	-0.5618028
233	0xbf2dd5bd	-0.67904264
234	0xbf13192e	-0.57460296
235	0xbed52b57	-0.41634628
236	0xbf0a7a95	-0.54093295
237	0xbee8a7de	-0.45440573
238	0xbf0ad150	-0.54225636
239	0xbef727ee	-0.4827265
240	0xbd28c334	-0.041201785
241	0xbf1dd765	-0.6165679
242	0xbf1a8a3a	-0.60367167
243	0xbf198aef	-0.5997762
244	0xbf23b784	-0.639519
245	0xbf000cf8	-0.5001979
246	0xbf118016	-0.5683607
247	0xbabc6500	-0.0014373362
248	0x3bcff460	0.0063462704
249	0xbed6e42a	-0.4197095
250	0xbbf1eec0	-0.0073831975
251	0xbf26516d	-0.64967996
252	0xbf0ac5ef	-0.5420827
253	0xbef40ef6	-0.47667664
254	0x3b2d4300	0.002643764
255	0xbee16a1f	-0.44026276

weight f4 [128, 512]
0	0xbf11beed	-0.56931955
1	0xbcfe9320	-0.031076014
2	0xbf1e787b	-0.6190259
3	0xbf23e021	-0.6401387
4	0xbf1f749f	-0.62287325
5	0xbd16178c	-0.03664355
6	0xbf23896e	-0.63881576
7	0xbf10e36e	-0.5659703
8	0xbf18f19e	-0.5974368
9	0xbf1c056f	-0.6094579
10	0xbf16eb00	-0.5895233
11	0x3aefd77f	0.0018298476
12	0xbf0f61ee	-0.56008804
13	0xbf15a2e4	-0.58451676
14	0xbf0f6c00	-0.5602417
15	0xbf23ed13	-0.6403362
16	0xbcf5cba7	-0.030004336
17	0xbd044f17	-0.03230199
18	0xbd019699	-0.03163776
19	0xbf208c39	-0.6271396
20	0xbf1a79b8	-0.6034198
21	0xbf1fceeb	-0.62425107
22	0xbf18ad04	-0.59639
23	0xbf1bfde1	-0.60934263
24	0xbf106820	-0.5640888
25	0xbf19b297	-0.6003813
26	0xbcdc17ea	-0.026866872
27	0x3bc71b7b	0.006076274
28	0xbf2431b2	-0.6413833
29	0xbf13ec88	-0.57782793
30	0xbf1eaa4f	-0.6197862
31	0xbf0fdbe5	-0.5619491
32	0xbf216e8f	-0.63059324
33	0xbf174546	-0.5909008
34	0xbf1357b5	-0.57555705
35	0xbf1cd231	-0.61258227
36	0xbf2004da	-0.625074
37	0xbf17c85e	-0.5929011
38	0x3f1aa864	0.60413194
39	0xbf11fdb6	-0.5702776
40	0xbf1050ba	-0.5637318
41	0xbf1e8bd5	-0.61932117
42	0xbf1434a4	-0.57892823
43	0xbf05b393	-0.52227134
44	0xbf1bdc78	-0.60883284
45	0xbf118efe	-0.56858814
46	0x3c57b762	0.01316628
47	0xbf1c5b2c	-0.6107662
48	0xbf1b0e1b	-0.605684
49	0xbf141083	-0.57837695
50	0xbf23f1fa	-0.640411
51	0x3cc8deac	0.02452024
52	0xbcc3e75c	-0.023914032
53	0xbf20ea13	-0.6285717
54	0x3d20c49a	0.039249994
55	0x3c857016	0.016288798
56	0xbf13057a	-0.5743023
57	0xbf212e75	-0.6296151
58	0xbf102ad2	-0.5631534
59	0xbf1495e9	-0.58041245
60	0xbf1c46a5	-0.61045295
61	0xbf11d689	-0.5696798
62	0xbf1babc6	-0.6080898
63	0xbf22cc70	-0.63593197
64	0xbd18b4d7	-0.037281837
65	0xbf15b152	-0.58473694
66	0xbf209e21	-0.62741286
67	0xbf14725f	-0.57987016
68	0xbf16071b	-0.5860459
69	0xbf21d3bc	-0.63213706
70	0xbf216a5c	-0.63052917
71	0xbc680f88	-0.014163859
72	0xbf1f4835	-0.62219554
73	0xbf0ff68c	-0.56235576
74	0xbf118fa6	-0.56859815
75	0xbf1d67c7	-0.61486477
76	0xbf20486b	-0.626105
77	0xbf1d23c8	-0.6138272
78	0xbf19201c	-0.5981462
79	0xbc34eb84	-0.011042479
80	0xbf1702b4	-0.589885
81	0xbf210505	-0.62898284
82	0xbf0ef808	-0.55847216
83	0xbf1eb301	-0.6199189
84	0xbf1c1d20	-0.6098194
85	0xbf16b0a8	-0.58863306
86	0xbf16ace9	-0.5885759
87	0xbf125a0c	-0.5716865
88	0xbf143c2c	-0.57904315
89	0xbd24513f	-0.040116545
90	0x3b339c0f	0.002740625
91	0xbf152c5a	-0.582708
92	0xbf15b229	-0.58474976
93	0xbf220f5f	-0.63304704
94	0xbf1407cc	-0.578244
95	0x3d129188	0.03578332
96	0xbf13d8bc	-0.57752585
97	0xbd161dd5	-0.036649544
98	0xbf19d696	-0.6009306
99	0xbf1b5dae	-0.6068982
100	0xbcfa71ef	-0.030571906
101	0xbf169cd4	-0.5883305
102	0xbcc5121a	-0.024056483
103	0xbf199792	-0.599969
104	0xbf1b8e6a	-0.6076418
105	0xbf0984a5	-0.53718024
106	0xbf12d2d1	-0.5735293
107	0xbcaffb3b	-0.0214821
108	0xbd0466d1	-0.032324616
109	0xbf1aedcb	-0.60519093
110	0x3d2fbd5a	0.04290519
111	0xbeeadca1	-0.45871451
112	0xbf1a27f2	-0.602172
113	0xbf0f6fa2	-0.56029713
114	0xbc5e4613	-0.013566512
115	0xbf12f21d	-0.57400686
116	0xbf241d40	-0.6410713
117	0xbf21c723	-0.63194484
118	0x3c8a48e4	0.01688046
119	0xbf167733	-0.58775634
120	0xbf08d69f	-0.53452486
121	0x396b18af	0.00022420542
122	0xbf239db0	-0.6391249
123	0xbf19c413	-0.6006481
124	0xbf1b8f16	-0.60765207
125	0xbf10f11d	-0.5661791
126	0xbf10811a	-0.56446993
127	0xbc4e0f78	-0.01257693
128	0xbf2017e3	-0.6253645
129	0xbf236a23	-0.63833827
130	0xbf135b9d	-0.57561666
131	0xbefd6050	-0.49487543
132	0xbf208efe	-0.6271819
133	0xbf19de7d	-0.60105115
134	0xbf18348f	-0.594552
135	0xbf0f5d6d	-0.5600193
136	0xbf1159c0	-0.5677757
137	0xbf2464e0	-0.64216423
138	0xbc7cd959	-0.015432679
139	0xbf12bf63	-0.5732328
140	0xbf182f6d	-0.59447366
141	0xbf23ab09	-0.63932854
142	0xbf15c50b	-0.5850379
143	0xbf1a1c4b	-0.6019942
144	0xbd0d232f	-0.03445738
145	0x3d1ca849	0.038246427
146	0x3cb34be1	0.021886768
147	0xbf1fc644	-0.62411904
148	0x3d1c0064	0.03808631
149	0xbf1bab51	-0.60808283
150	0xbf2010db	-0.6252572
151	0xbf159d35	-0.58443004
152	0x3d06b9a8	0.0328919
153	0xbf218087	-0.6308674
154	0xbf0ecdf5	-0.55783015
155	0xbf223e40	-0.63376236
156	0xbd0e4c01	-0.03474045
157	0xbf1e6d4c	-0.61885524
158	0xbf1368d9	-0.5758186
159	0xbf140e41	-0.5783425
160	0xbf0eddf9	-0.55807453
161	0xbf136cca	-0.57587874
162	0xbf248dbd	-0.64278775
163	0x3d327f79	0.0435786
164	0xbf1f9c25	-0.6234763
165	0xbcd8d3ba	-0.026468147
166	0xbf1ad333	-0.60478514
167	0xbf113a4d	-0.56729585
168	0x3c7e9915	0.015539427
169	0xbcbbcc6f	-0.02292463
170	0xbf14933f	-0.5803718
171	0xbf22e535	-0.6363099
172	0xbf10eff1	-0.5661612
173	0xbf154359	-0.5830589
174	0xbf227fcd	-0.6347626
175	0xbf220c46	-0.6329998
176	0xbf142c48	-0.5788007
177	0xbf225bce	-0.6342133
178	0xbf14e7d0	-0.5816622
179	0xbf0ff28b	-0.56229466
180	0xbf20bfd6	-0.6279272
181	0xbf180559	-0.5938316
182	0xbf20aa41	-0.62759787
183	0xbf18cd90	-0.59688663
184	0xbf23847a	-0.6387402
185	0xbf1cdfc0	-0.61278915
186	0xbcce3864	-0.025173374
187	0xbf1e0cc4	-0.6173823
188	0xbf141a0f	-0.5785226
189	0xbf1545ae	-0.5830945
190	0x3cd49238	0.025948629
191	0xbf0f9ca0	-0.56098366
192	0xbf10c616	-0.56552255
193	0xbf17683b	-0.5914342
194	0xbf1369ae	-0.5758313
195	0x3c9b858f	0.018984584
196	0xbf1eb037	-0.6198763
197	0xbee7e3a5	-0.45290866
198	0xbf14930b	-0.5803687
199	0xbf220233	-0.63284606
200	0xbf1f372a	-0.6219355
201	0xbf2280c1	-0.6347771
202	0xbef6efd2	-0.48229843
203	0xbf1478c3	-0.5799677
204	0xbf22ae22	-0.63546956
205	0xbf0fd759	-0.5618797
206	0xbf160a37	-0.58609337
207	0xbf1d3c42	-0.6142007
208	0x3c901b1c	0.017591052
209	0x3c2e6c56	0.0106459465
210	0xbf207477	-0.6267771
211	0xbbf34027	-0.007423419
212	0xbf21bbf7	-0.63177437
213	0x3cd8b5f1	0.026453944
214	0xbc7454e6	-0.0149128195
215	0xbf2019a8	-0.6253915
216	0xbf20f6a7	-0.6287636
217	0x3d2af264	0.041735068
218	0xbf187104	-0.5954745
219	0xbec27ac0	-0.37984276
220	0xbf1d930d	-0.61552507
221	0xbf235f8a	-0.63817656
222	0xbd125fbe	-0.035735838
223	0x3cd85ddc	0.026411943
224	0xbf148b5c	-0.58025146
225	0xbf17d992	-0.5931636
226	0xbf18d063	-0.5969297
227	0xbf1dbcbd	-0.61616117
228	0xbd1b17b8	-0.037864417
229	0xbf112b72	-0.5670692
230	0xbf24e0a0	-0.6440525
231	0xbf207137	-0.6267275
232	0xbf20852c	-0.62703204
233	0xbf1a5999	-0.60292965
234	0xbf1455a6	-0.5794319
235	0xbf10372c	-0.56334186
236	0xbf108658	-0.5645499
237	0xbf249037	-0.64282554
238	0xbf1e0015	-0.61718875
239	0xbf111608	-0.5667424
240	0x3ca1f9d6	0.019772451
241	0xbf127c73	-0.57221144
242	0xbf1d6770	-0.6148596
243	0xbf16b25c	-0.58865905
244	0xbf1253a3	-0.5715887
245	0xbf1ee7d7	-0.6207251
246	0xbf1db316	-0.6160139
247	0xbbdef455	-0.006804029
248	0xbca36bfc	-0.019948952
249	0xbf1ea6c8	-0.6197324
250	0xbcddc912	-0.027073417
251	0xbf212ed5	-0.62962085
252	0xbf2076d1	-0.626813
253	0xbf1ea960	-0.61977196
254	0xbcab099f	-0.020878611
255	0xbf2274cc	-0.6345947

bias f4 [128]
0	0xbf625b49	-0.8842054
1	0xbee8411b	-0.45362172
2	0xbf03f5b7	-0.51546806
3	0xbf0fc059	-0.56152874
4	0xbe97cb83	-0.29647455
5	0xbed3c6ab	-0.4136251
6	0xbdae1ded	-0.08501802
7	0xbee26a6f	-0.44221827
8	0xbf179c1a	-0.5922257
9	0xbf150ec5	-0.5822566
10	0xbef4da24	-0.47822678
11	0xbe906870	-0.2820468
12	0xbfc8efd5	-1.5698191
13	0xbeec9371	-0.4620624
14	0xbf1d4db4	-0.6144669
15	0xbe8e39f3	-0.27778587
16	0xbcb5014e	-0.022095349
17	0xbf10cbc5	-0.5656093
18	0xbf20243f	-0.6255531
19	0xbed8aa8e	-0.42317623
20	0xbef0cfef	-0.4703364
21	0xbf53d210	-0.82742405
22	0xbf12249b	-0.57087106
23	0xbf18926d	-0.5959843
24	0xbdd3be35	-0.103390135
25	0xbf0ad140	-0.5422554
26	0xbede5c8d	-0.43429986
27	0xbeed99ea	-0.4640649
28	0xbf0e2f28	-0.55540705
29	0xbf1c19bc	-0.6097677
30	0x3ec1eab3	0.37874374
31	0xbf123eb9	-0.5712696
32	0xbed3af8c	-0.4134487
33	0xbf190aa6	-0.59781873
34	0xbef0e282	-0.47047812
35	0xbf14da8f	-0.58145994
36	0xbeefd844	-0.46844685
37	0xbe62a9a6	-0.22135028
38	0xbf24e3d7	-0.64410156
39	0xbee54112	-0.44776207
40	0xbeff811c	-0.4990319
41	0xbf088372	-0.5332557
42	0xbede7593	-0.43449077
43	0xbf04aab0	-0.5182295
44	0xbedf3d48	-0.4360144
45	0xc04aa27d	-3.1661675
46	0xbfc3444f	-1.5255221
47	0xbf4d049a	-0.80085146
48	0xbe77ed72	-0.24211672
49	0xbedbec29	-0.42953613
50	0xbedfea2c	-0.43733346
51	0xc0c6d075	-6.2129464
52	0xbf19630a	-0.59916747
53	0xbe8d4f2b	-0.27599463
54	0xbee36056	-0.44409436
55	0xbf1393a2	-0.57647145
56	0x3ee597e0	0.44842434
57	0xbed4f0b2	-0.41589886
58	0xbed9e2cb	-0.42555842
59	0xbea42404	-0.32058728
60	0xbeef48df	-0.46735284
61	0xbeeb3f01	-0.45946506
62	0xbef6c593	-0.48197612
63	0xbeebeb6b	-0.46078047
64	0x3e86c146	0.2631933
65	0xbe90c6f0	-0.28276777
66	0xbedd815c	-0.43262756
67	0xbed525ad	-0.41630307
68	0xbed99f1e	-0.4250421
69	0xbeec54fe	-0.46158594
70	0xbede703c	-0.43445003
71	0xbf131429	-0.57452637
72	0xbf127ee0	-0.57224846
73	0xbe9ae4b5	-0.30252615
74	0xbf1265a6	-0.57186353
75	0xbe201d86	-0.15636262
76	0xbee79b4d	-0.45235673
77	0xbf142e24	-0.57882905
78	0xbdf28bc0	-0.118430614
79	0xbf10fe1c	-0.5663774
80	0xbf1d77ca	-0.6151091
81	0xbef42394	-0.47683394
82	0xbef2079f	-0.4727144
83	0xbf145bbf	-0.57952493
84	0xbeda5575	-0.42643324
85	0xbf35ace7	-0.70966953
86	0xbf08d5d8	-0.534513
87	0xbea75741	-0.32683757
88	0xc04a5c3b	-3.1618793
89	0xbee5929e	-0.44838423
90	0xbef28594	-0.47367537
91	0xbf0f06ef	-0.55869955
92	0xbe6ebfca	-0.23315349
93	0xbedc816e	-0.43067497
94	0xbf1ca390	-0.61187077
95	0xbf217761	-0.6307278
96	0xbf143247	-0.5788922
97	0xbdbd5eb0	-0.09246576
98	0xbee65e54	-0.44993842
99	0xbeeb74c7	-0.45987532
100	0xbf0de43d	-0.5542639
101	0x3f09dfaf	0.5385694
102	0xbf196dc5	-0.5993312
103	0xbf1312ad	-0.5745037
104	0xbefa3ad5	-0.4887301
105	0xbcc93041	-0.024559142
106	0xbf070843	-0.5274698
107	0xbe8470e9	-0.25867394
108	0xc037221f	-2.8614576
109	0xbe988242	-0.2978688
110	0xbed3c5ae	-0.41361755
111	0xbf1728e1	-0.5904675
112	0xbef3fd9d	-0.4765443
113	0xbed5a443	-0.41726884
114	0xbeff6e86	-0.4988901
115	0xbf1c09c7	-0.6095242
116	0xbee181b4	-0.44044268
117	0xbef3cb3f	-0.47616002
118	0xbe852c8d	-0.26010552
119	0xbfc414ba	-1.5318825
120	0xbf235c2f	-0.63812536
121	0xbf1619e2	-0.58633244
122	0xbee267d3	-0.44219837
123	0xbeed296f	-0.46320674
124	0xbf06b42f	-0.5261869
125	0xbee6e615	-0.45097414
126	0xbf182eda	-0.5944649
127	0xbe989a34	-0.29805148

weight f4 [1, 128]
0	0xbe5fb390	-0.21845841
1	0xbec166bd	-0.37773696
2	0x3f1d176e	0.61363876
3	0x3f185e1b	0.59518594
4	0xbe8338e4	-0.25629342
5	0xbedb15cb	-0.42790064
6	0x3ea25e9f	0.31712815
7	0xbedeb893	-0.43500194
8	0xbefe7549	-0.49698856
9	0xbf0dcd4c	-0.55391383
10	0xbec357c6	-0.38152903
11	0xbe41da0d	-0.18930836
12	0xbe14206e	-0.14465496
13	0xbec0c5e1	-0.3765097
14	0x3f073624	0.5281699
15	0xbe325f57	-0.17419182
16	0x3c58b1e5	0.013226007
17	0x3f128f76	0.57250154
18	0x3f12be50	0.57321644
19	0xbecadc8f	-0.39621398
20	0xbecbdf56	-0.3981883
21	0x3f188afd	0.5958708
22	0xbf048f68	-0.5178132
23	0xbf00d3c4	-0.5032313
24	0x3e92ffba	0.2871073
25	0xbefbe1e9	-0.49195793
26	0xbed20682	-0.4102059
27	0xbeda88de	-0.42682546
28	0x3eea7aab	0.45796713
29	0x3f17cc0a	0.59295714
30	0xbf124bd5	-0.5714696
31	0x3f07a214	0.52981687
32	0xbebfa8ec	-0.37433565
33	0xbf095cad	-0.53657037
34	0xbed1fd6c	-0.41013658
35	0x3f18486b	0.594855
36	0xbecf68c8	-0.4050963
37	0xbe3040fc	-0.1721229
38	0x3f0d32e0	0.55155754
39	0xbedb4b7a	-0.42831022
40	0xbee9244c	-0.45535505
41	0x3ef89302	0.48549658
42	0xbec52f3a	-0.38512594
43	0x3ee0d033	0.43908843
44	0xbee40d0e	-0.4454121
45	0xc0333d11	-2.8006022
46	0x3edef46a	0.43545848
47	0xbf4dbc72	-0.8036567
48	0xbe4072df	-0.1879382
49	0xbec77afd	-0.3896102
50	0xbed2480c	-0.41070592
51	0xbde3a240	-0.11114931
52	0x3f0a12e6	0.53935087
53	0xbe17b0f7	-0.148136
54	0xbedcb39b	-0.43105778
55	0x3f0dc84f	0.5538377
56	0xbf1b5202	-0.6067201
57	0xbedb8630	-0.42875814
58	0xbed9bbfb	-0.4252623
59	0xbe4fd858	-0.20297372
60	0xbec4a475	-0.3840672
61	0xbec11566	-0.37711638
62	0xbed0ff4d	-0.4081978
63	0xbebca44e	-0.36844105
64	0xbf097c78	-0.5370555
65	0xbe7dc7f4	-0.24783307
66	0xbee6493a	-0.44977742
67	0xbec77a94	-0.38960707
68	0xbec010f5	-0.37512937
69	0xbee8b928	-0.45453763
70	0xbeca7786	-0.39544314
71	0xbf0039b2	-0.50088036
72	0xbf07dc2f	-0.5307035
73	0xbdfd132c	-0.12357172
74	0xbee86d5f	-0.45395944
75	0xbe8df8ee	-0.2772898
76	0xbed03556	-0.40665692
77	0xbf056223	-0.5210287
78	0xbe60c1dd	-0.21948953
79	0x3f0f307f	0.55933374
80	0x3f06a588	0.5259633
81	0xbe92b09a	-0.2865036
82	0xbee0b000	-0.43884277
83	0xbf02ee61	-0.5114499
84	0xbee2eb57	-0.44320175
85	0xbd28e8e5	-0.04123773
86	0xbefa593b	-0.48896202
87	0xbe1efad5	-0.15525372
88	0x404570d1	3.0850108
89	0xbecaca87	-0.3960764
90	0xbedc1f32	-0.4299255
91	0xbf0761a1	-0.52883345
92	0xbe385200	-0.1800003
93	0xbed4dfc7	-0.4157698
94	0x3f0eff7e	0.558586
95	0x3f09538b	0.536431
96	0xbf072bea	-0.5280138
97	0x3ea2ec1e	0.31820768
98	0xbed172cc	-0.40907896
99	0xbeccd173	-0.40003547
100	0x3f011d74	0.50435567
101	0xbe1153c9	-0.14192118
102	0x3f0e2cae	0.55536926
103	0x3f10a2bc	0.5649831
104	0xbebf905a	-0.3741482
105	0xbcb24cef	-0.0217652
106	0xbf05c7e2	-0.5225812
107	0x3e7b5184	0.24542814
108	0xc04229ec	-3.0338087
109	0xbe69e2b1	-0.22840382
110	0xbec3c39b	-0.38235173
111	0xbf0bb7cb	-0.5457732
112	0xbee73431	-0.45157006
113	0xbecd87ca	-0.4014266
114	0xbed32ea9	-0.41246536
115	0x3f10f6e0	0.566267
116	0xbed1e923	-0.40998182
117	0xbec793da	-0.3897999
118	0xbe333d7c	-0.17503923
119	0xbe8db956	-0.27680463
120	0x3f0c89c9	0.54897743
121	0x3f07cc93	0.5304653
122	0xbededd3e	-0.4352817
123	0xbee84554	-0.45365393
124	0x3ed9bc23	0.4252635
125	0xbec5d961	-0.3864241
126	0xbf059fd3	-0.52197
127	0xbe38e46b	-0.18055885
