net_f1.pth (torch, 795215 bytes, 7 tensors)

weight f4 [256, 1]
0.51901615 -0.051459312 0.12486395 -0.3345446 0.4425447 0.204726 -0.21676563 0.07678366
-0.43052173 0.22197132 -0.27845502 -0.29192793 0.3514681 0.4759922 -0.8652315 0.21149963
-0.43819392 -0.11172218 0.06319261 -0.7207062 -0.6849195 0.3675844 -0.3389795 -0.21978179
0.50443584 -0.082893014 0.11941534 -0.4772849 0.3568812 0.19103861 0.65211403 0.363097
0.41860119 -0.81825113 0.30798247 -0.21908365 -0.24967474 0.00016180094 0.3705293 0.2873326
-0.52907294 -0.024764612 0.28892654 -0.18330781 0.21706045 -0.13235259 -0.055705525 0.46378857
0.29056406 -0.23284006 0.23374301 -0.37932009 -0.050977375 -0.09019148 0.59434927 -0.63147205
0.7926085 -0.16452669 -0.085695535 0.04543845 0.014185636 -0.46019232 0.5808481 0.16487391
-0.34767962 0.21230876 0.06608761 0.41493666 0.19582886 0.21224248 0.13601023 0.12171924
-0.3932867 -0.13517086 0.07952946 0.1809295 -0.10888791 0.28365895 0.5443649 0.23601581
-0.4207781 0.2793634 0.2357312 -0.57395995 0.2164404 0.08339135 0.077051766 -0.58793813
-0.3771726 -0.039862633 0.3000577 0.3047214 0.033138342 0.107859254 0.2756281 0.4128293
0.0092809955 -0.05297833 0.25530362 0.21480072 -0.7112017 -0.1664991 0.36286983 0.1536805
-0.52885306 0.17544815 -0.16783118 -0.37846404 0.57033825 -0.6621159 0.35460284 0.0027444363
-0.12017155 -0.38533735 -0.33929288 0.16415586 -0.119287595 0.069426306 0.33084977 -0.13659628
-0.76059806 -0.17148723 -0.13687015 -0.024391532 -0.29949665 -0.24111281 0.4550122 0.14150757
-0.6883141 0.38370392 0.3412147 -0.2012469 0.24315593 0.41981882 0.3802144 0.4377303
-0.008463383 -0.13315764 -0.18642211 -0.4409753 -0.88835526 0.47698867 -0.5237299 0.4700783
-0.2784599 -0.6934278 0.6004024 0.0053007933 0.019930696 0.49239656 0.3589758 0.23370513
0.29045925 -0.266543 0.0054274453 -0.30499637 0.080809236 -0.538174 -0.21040665 0.028665543
0.3021335 -0.72868264 0.14285445 0.64907205 0.29330933 0.24493703 0.3168579 -0.13205045
0.17003453 0.63633794 0.12852375 -0.3722554 -0.047902822 0.33968234 -0.54902697 -0.089943044
0.31181282 -0.0114240935 0.1320793 0.4319477 0.52844906 -0.4223008 0.15377145 0.38503373
-0.21821776 -0.26375857 -0.15345919 -0.045120467 -0.65258193 0.025643732 0.25450295 -0.27511483
-0.20599794 -0.44440365 -0.030823385 -0.46065342 -0.18413611 -0.23975217 0.0017873596 -0.37156627
0.46267107 0.43041876 0.42517108 0.29623657 -0.16878101 0.33906043 0.28346923 0.22990426
0.30788526 -0.031413138 -0.35143876 -0.73475516 -0.21232055 -0.06748071 0.42979512 0.466959
-0.25082207 0.04106743 0.3596725 -0.7132604 0.042216856 -0.43675768 -0.5586417 0.12465048
0.41128287 -0.15646136 -0.1295894 -0.27137506 -0.112324335 0.5678352 0.21114512 -0.54676723
-0.2900994 0.90259075 0.51149166 0.27017128 0.18965515 -0.03393662 0.98258615 0.8441124
0.49422848 0.34457698 -0.0085325735 0.4528173 0.24661668 0.42715454 0.24543247 0.5009255
0.39121723 0.056032658 0.12025912 -0.2546761 -0.114737146 -0.6707537 0.31158447 -0.2747409
00000000: 3ede 043f 00c7 52bd acb8 ff3d 6e49 abbe
00000010: 3895 e23e b1a3 513e cff7 5dbe c040 9d3d
00000020: 586d dcbe 734c 633e a891 8ebe 9477 95be
00000030: a0f3 b33e 40b5 f33e d07f 5dbf 5c93 583e
00000040: f45a e0be 99ce e4bd 216b 813d 3480 38bf
00000050: e256 2fbf 0634 bc3e b98e adbe 7a0e 61be
00000060: b522 013f d0c3 a9bd 0890 f43d b05e f4be
00000070: 22b9 b63e a09f 433e f2f0 263f dae7 b93e
00000080: e552 d63e e878 51bf e1af 9d3e 7757 60be
00000090: bcaa 7fbe 1ca9 2939 04b6 bd3e 421d 933e
000000a0: 5371 07bf 28df cabc 2eee 933e 0bb5 3bbe
000000b0: 1845 5e3e 7087 07be 7a2b 64bd b275 ed3e
000000c0: d0c4 943e a06d 6ebe 545a 6f3e 3e36 c2be
000000d0: a7cd 50bd 50b6 b8bd 4627 183f 27a8 21bf
000000e0: 64e8 4a3f af79 28be 2481 afbd ab1d 3a3d
000000f0: df6a 683c 549e ebbe 76b2 143f b5d4 283e
00000100: 1003 b2be 7867 593e f158 873d 9472 d43e
00000110: 5c87 483e 1856 593e 4446 0b3e f047 f93d
00000120: e05c c9be 3b6a 0abe 57e0 a23d 9545 393e
00000130: a000 dfbd bf3b 913e 805b 0b3f 21ae 713e
00000140: 3a70 d7be b808 8f3e 8563 713e 0aef 12bf
00000150: 8da2 5d3e 16c9 aa3d 51cd 9d3d 1d83 16bf
00000160: c41c c1be 0047 23bd 2aa1 993e 7104 9c3e
00000170: 12bc 073d 50e5 dc3d 201f 8d3e 5d5e d33e
00000180: 510f 183c ceff 58bd 28b7 823e b8f4 5b3e
00000190: 5111 36bf bd7e 2abe 13ca b93e 6c5e 1d3e
000001a0: ea62 07bf aea8 333e f0db 2bbe 0ac6 c1be
000001b0: b001 123f 6d80 29bf 818e b53e 00dc 333b
000001c0: 801c f6bd f04a c5be ccb7 adbe 7918 283e
000001d0: 0e4d f4bd 612f 8e3d 2465 a93e e5df 0bbe
000001e0: 8eb6 42bf 599a 2fbe b027 0cbe c0d0 c7bc
000001f0: a057 99be 47e6 76be 5cf7 e83e 5ce7 103e
00000200: 5a35 30bf d774 c43e b1b3 ae3e ab13 4ebe
00000210: defd 783e 7ef2 d63e 76ab c23e 301e e03e
00000220: 00aa 0abc 7a5a 08be 70e5 3ebe 84c7 e1be
00000230: 406b 63bf dc37 f43e 2a13 06bf 1aae f03e
00000240: 4c92 8ebe 7c84 31bf f9b3 193f 47b2 ad3b
00000250: b345 a33c 671b fc3e adcb b73e 6650 6f3e
00000260: 13b7 943e 5378 88be b6d8 b13b 7c28 9cbe
00000270: 507f a53d c5c5 09bf d774 57be 00d4 ea3c
00000280: 3eb1 9a3e f28a 3abf 7048 123e 9629 263f
00000290: a42c 963e c6d0 7a3e 333b a23e 3c38 07be
000002a0: 881d 2e3e 0be7 223f bb9b 033e 4398 bebe
000002b0: c035 44bd d8ea ad3e 088d 0cbf 0f34 b8bd
000002c0: eea5 9f3e 1f2c 3bbc cc3f 073e 4028 dd3e
000002d0: 7048 073f cf37 d8be 4376 1d3e 2423 c53e
000002e0: 7a74 5fbe 5d0b 87be 6824 1dbe 3dd0 38bd
000002f0: 9c0f 27bf ce12 d23c 364e 823e dadb 8cbe
00000300: 20f1 52be e088 e3be 5381 fcbc c4da ebbe
00000310: 2d8e 3cbe 9881 75be d645 ea3a ef3d bebe
00000320: 39e3 ec3e d95f dc3e 06b0 d93e 52ac 973e
00000330: eed4 2cbe 5499 ad3e e122 913e 066c 6b3e
00000340: 23a3 9d3e 10ab 00bd c8ef b3be ea18 3cbf
00000350: 8f6a 59be 5433 8abd 1b0e dc3e 4015 ef3e
00000360: c06b 80be 5236 283d fe26 b83e 3c98 36bf
00000370: 95eb 2c3d b49e dfbe 2403 0fbf c048 ff3d
00000380: ab93 d23e 6837 20be 15b3 04be acf1 8abe
00000390: 4d0a e6bd a65d 113f 6d36 583e f0f8 0bbf
000003a0: e987 94be 3010 673f 1ef1 023f e453 8a3e
000003b0: f634 423e 2001 0bbd c48a 7b3f c017 583f
000003c0: 840b fd3e 656c b03e 35cc 0bbc abd7 e73e
000003d0: 1589 7c3e 00b4 da3e a652 7b3e a73c 003f
000003e0: a04d c83e 8082 653d 6a4a f63d e864 82be
000003f0: 4ffb eabd 84b6 2bbf 0088 9f3e d7aa 8cbe

bias f4 [256]
-0.61846757 -0.6877836 -0.14381488 -0.62631124 -0.52900386 -0.6673687 -0.79897374 -0.24371958
-0.976251 -0.17548826 -0.7266278 -0.48828372 -0.36863756 -0.617246 -0.51638997 -0.5533695
-0.17827143 -0.8163537 -0.19089793 -0.99837124 -0.6993456 -1.3049011 -0.46205002 -0.69990283
-0.50425607 -0.31217277 -0.21307623 -0.5306189 -0.7660056 -0.2637204 -0.88403547 -0.29359558
-0.30766994 -0.9850882 -0.24294174 -1.3327963 -1.2998121 -0.09269401 -0.9410994 -1.1939312
-1.3748162 -0.18930764 -0.28896105 0.040260267 -0.44875717 -0.85347295 -0.6429279 -0.5361917
-0.64869386 -0.8072797 -1.1316953 -0.7888596 -0.05098009 -0.60547084 -0.6885426 -0.58640355
-0.8685974 -0.61914665 -0.08084805 -0.94183284 -0.9848551 -0.8522781 -0.59061456 0.014454588
-0.4033084 -0.5192547 -1.0389545 -0.9938147 -0.045826893 -0.22313836 -0.13638097 -1.0728654
-0.67749596 -0.67690736 -0.18831557 -0.56459284 -0.5000354 -0.6358063 -0.40728608 -0.65455353
-0.60932684 -0.76552355 -1.0898184 -0.5809792 0.050505526 -0.08339498 -1.1136026 -0.48720774
-0.28308487 -0.903913 -0.75702566 -0.56341416 -0.9622579 -0.32142723 -0.3671828 -0.67164207
-0.011319972 -0.47026163 -0.49475873 -0.9844539 -0.80683744 -0.6341535 -1.3040468 -0.82311654
-0.84913146 -1.2175056 -0.80269694 -1.5456542 -0.7239381 -0.59798676 -0.58247507 -0.5012003
-0.5755385 -0.5329375 -0.59121823 -1.1213492 -0.91005206 -0.2190617 -0.5126504 -0.4848841
-0.8073 -0.8112091 -0.54947597 -0.16643383 -0.6759858 -0.46089938 -0.7222866 -0.23500896
-0.42682052 -1.5602397 -0.7414635 -0.78929174 -0.14762765 -0.6744234 -0.22453679 -0.93903923
-0.6985395 -0.8551123 -0.47453988 -0.33756623 -0.6956348 -0.51330596 -0.6863767 -0.6230847
-0.41386926 -0.19236459 -1.3410928 -0.37130362 -0.020597849 -0.7328788 -0.3639652 -0.6438028
-0.4568975 -0.71761894 -0.009252791 -0.9230516 -0.98055375 -0.5621634 -0.76174796 -0.13025498
-1.2668493 -0.9543905 -0.77164316 -0.6271398 -0.24018043 -1.1505989 -0.028304216 -0.61524415
-0.34766138 -0.47226915 -0.30160242 -0.6551191 -0.8384142 -0.6104567 -1.107952 -0.29932606
-0.5425187 -0.9775193 -1.064844 -0.8642576 -0.97135985 -0.6603751 -0.35278928 -0.57583845
-0.38416287 -0.53045166 -0.33367538 -0.6829128 -0.8080412 -0.5931306 -0.736026 -0.679124
-0.6314056 -0.6604031 -0.62360317 -0.7872653 -0.758157 -0.66909 -0.9661535 -0.6255684
-0.5087578 -0.5709776 -0.6509992 -0.24655528 -0.6130361 -0.8062082 -0.2503543 -0.4851294
-1.2340544 -0.46313086 -0.60962576 -0.5546395 -1.2547414 -0.48137397 -0.55015796 -0.8204751
-1.2929335 -0.99280244 -0.22036119 -0.9059 -0.22180848 -0.5596451 -0.44254068 -0.2939318
-0.41125098 -0.9847504 -0.83354026 -0.6639247 -0.8564387 -0.69150126 -0.47956342 -0.6343449
-0.9694999 -0.92057824 -0.5771089 -1.4159788 -0.81205255 -0.487046 -0.55480987 -0.99803185
-0.54905593 -0.49034694 -0.011157278 -0.6273797 -0.40104672 -0.81851447 -0.3983761 -0.12739937
-0.3111246 -0.56518424 -0.65634805 -0.95912457 -0.9497425 -0.8086821 -0.5296215 -0.24087591
00000000: e453 1ebf 9612 30bf 3544 13be ef55 20bf
00000010: cc6c 07bf add8 2abf 8b89 4cbf a091 79be
00000020: 96eb 79bf 32b3 33be 4804 3abf 5300 fabe
00000030: 10be bcbe d503 1ebf 2232 04bf a0a9 0dbf
00000040: c98c 36be 8efc 50bf bf7a 43be 4295 7fbf
00000050: 5008 33bf 0007 a7bf d291 ecbe d52c 33bf
00000060: ed16 01bf 1cd5 9fbe a830 5abe a4d6 07bf
00000070: f118 44bf 5c06 87be 2650 62bf 2952 96be
00000080: ea86 9dbe be2e 7cbf b8c5 78be 1299 aabf
00000090: 3e60 a6bf 5bd6 bdbd e4eb 70bf bdd2 98bf
000000a0: faf9 afbf ddd9 41be b4f2 93be f3e7 243d
000000b0: 80c3 e5be 347d 5abf ec96 24bf dc43 09bf
000000c0: cd10 26bf e2a9 4ebf 64db 90bf b4f2 49bf
000000d0: 80d0 50bd 2300 1bbf 5444 30bf 8b1e 16bf
000000e0: 665c 5ebf 6580 1ebf aa93 a5bd f51b 71bf
000000f0: 771f 7cbf e62e 5abf 8432 17bf f0d2 6c3c
00000100: 707e cebe e0ed 04bf 76fc 84bf a46a 7ebf
00000110: fbb4 3bbd 627e 64be 74a7 0bbe a753 89bf
00000120: 6070 2dbf cd49 2dbf ccd5 40be 2889 10bf
00000130: 5202 00bf 34c4 22bf cd87 d0be d290 27bf
00000140: d8fc 1bbf 5af9 43bf 2b7f 8bbf 0ebb 14bf
00000150: e2de 4e3d fdca aabd 888a 8ebf 4b73 f9be
00000160: 80f0 90be d866 67bf 6fcc 41bf e93b 10bf
00000170: 8956 76bf 1c92 a4be 62ff bbbe bcf0 2bbf
00000180: 6777 39bc 22c6 f0be 0451 fdbe 2c05 7cbf
00000190: e68c 4ebf e257 22bf 01eb a6bf c4b7 52bf
000001a0: ae60 59bf 39d7 9bbf 8c7d 4dbf ffd7 c5bf
000001b0: 0254 39bf a915 19bf 161d 15bf aa4e 00bf
000001c0: 7e56 13bf 986e 08bf 145a 17bf 5f88 8fbf
000001d0: 2cf9 68bf b651 60be 0e3d 03bf bb42 f8be
000001e0: 36ab 4ebf 66ab 4fbf 75aa 0cbf a16d 2abe
000001f0: 680d 2dbf 01fb ebbe c6e7 38bf 30a6 70be
00000200: 3888 dabe efb5 c7bf 8dd0 3dbf 060f 4abf
00000210: b42b 17be 03a7 2cbf f9ec 65be e064 70bf
00000220: 7cd3 32bf a4e8 5abf e4f6 f2be 7bd5 acbe
00000230: 1f15 32bf 0568 03bf 62b6 2fbf 7b82 1fbf
00000240: ace6 d3be 39fb 44be eea8 abbf 821b bebe
00000250: d2bc a8bc f29d 3bbf a659 babe 43d0 24bf
00000260: 78ee e9be e0b5 37bf 0599 17bc 1c4d 6cbf
00000270: 9205 7bbf f1e9 0fbf ea01 43bf 9061 05be
00000280: 1e28 a2bf f052 74bf 688a 45bf 3c8c 20bf
00000290: dcf1 75be d346 93bf 3ede e7bc a480 1dbf
000002a0: ac00 b2be 43cd f1be a26b 9abe e3b5 27bf
000002b0: 50a2 56bf e446 1cbf 5fd1 8dbf 4441 99be
000002c0: 81e2 0abf b43e 7abf cf4c 88bf fc3f 5dbf
000002d0: 0aab 78bf 580e 29bf cca0 b4be 266a 13bf
000002e0: ffb0 c4be aecb 07bf 80d7 aabe 60d3 2ebf
000002f0: cadb 4ebf 68d7 17bf 336c 3cbf 12db 2dbf
00000300: cca3 21bf 2d10 29bf 75a4 1fbf 388a 49bf
00000310: 9416 42bf 7b49 2bbf d655 77bf 4025 20bf
00000320: f43d 02bf 972b 12bf e2a7 26bf fd78 7cbe
00000330: efef 1cbf a963 4ebf 702e 80be e162 f8be
00000340: 7ff5 9dbf 7d1f edbe 6f10 1cbf dbfc 0dbf
00000350: 5e9b a0bf a676 f6be 27d7 0cbf a80a 52bf
00000360: d87e a5bf 4d28 7ebf 5da6 61be 10e9 67bf
00000370: c321 63be e744 0fbf b194 e2be 3b7e 96be
00000380: 7d8f d2be 9a18 7cbf e562 55bf f8f6 29bf
00000390: 913f 5bbf 3a06 31bf 5689 f5be 6d64 22bf
000003a0: 2531 78bf 04ab 6bbf 69bd 13bf cb3e b5bf
000003b0: ade2 4fbf 185e f9be 0508 0ebf 047f 7fbf
000003c0: ee8e 0cbf c10e fbbe 04cd 36bc f59b 20bf
000003d0: ff55 cdbe 2a8a 51bf f4f7 cbbe fb74 02be
000003e0: b94b 9fbe eaaf 10bf 6d06 28bf 3089 75bf
000003f0: 5322 73bf ca05 4fbf 4695 07bf 2da8 76be

weight f4 [512, 256]
-0.44114974 -0.03707753 -0.44304895 -0.68215203 -0.46066383 -0.4744283 -0.50732464 0.035164192
0.057926334 -0.47569412 0.038325816 -0.6114333 -0.0083496645 -0.47843507 -0.61449414 -0.44378823
-0.64093244 -0.41417843 -0.49372694 0.037628226 0.0012250617 -0.049141914 -0.67387784 -0.68254715
-0.46625295 0.05827012 -0.42974538 -0.6460771 -0.40111104 0.0071865693 0.015979983 -0.6448307
-0.43548408 0.034235366 -0.49520326 0.56538576 -0.47284713 -0.44952917 -0.0013924986 -0.6099882
-0.4239754 -0.42412692 -0.4294623 -0.63062227 -0.015131585 0.046415955 -0.70999414 -0.41232535
-0.47891164 0.019761853 -0.027684651 -0.020892836 -0.50536364 -0.59652644 -0.46284708 -0.6123004
0.046397656 -0.62760526 -0.4180718 -0.66848123 -0.57526714 -0.043023534 0.024670884 -0.6607064
-0.056098096 0.055814825 -0.5826701 0.01012329 -0.43544376 -0.6265837 -0.47469696 -0.6367978
-0.010113083 -0.69069886 -0.50049436 -0.47817126 0.010214582 -0.45024902 -0.47106394 -0.4275752
-0.660777 -0.021647975 -0.019158721 -0.6748284 -0.6710585 -0.4702164 0.41590542 -0.4698376
-0.7183283 -0.684647 -0.4242713 -0.39835387 -0.48984832 -0.01681991 -0.397437 -0.43499094
-0.42955878 -0.7021898 0.051080763 -0.037892297 -0.7055344 -0.4040894 -0.022375628 -0.4253474
0.047358252 -0.021714054 0.03878645 0.5758165 0.028099634 -0.7146613 -0.4332558 -0.025522605
-0.0062213168 0.028512098 -0.60096496 -0.6000873 -0.025220923 -0.46791223 -0.4828683 -0.67394954
0.04392024 -0.65831083 -0.6923892 -0.41390747 -0.6623311 -0.6546826 -0.049076155 -0.39811218
-0.61467546 -0.0044950396 -0.49593478 -0.6168606 -0.48836204 -0.40136102 -0.69085 -0.060584947
0.02776087 -0.5857016 0.044715405 -0.66043025 -0.67542326 -0.5136674 0.028814584 -0.5128943
0.024333864 -0.60838425 0.048125915 -0.40906516 -0.45608556 -0.47450787 -0.45565107 -0.4644818
-0.4032261 -0.6566963 -0.5022771 0.01686269 -0.5759826 -0.6370004 -0.6827836 -0.030199923
0.029836424 -0.02255486 0.03576833 -0.44176796 -0.61429685 -0.6026984 -0.6803681 -0.67785954
-0.026684567 -0.42166755 -0.474906 -0.6513689 -0.041206382 -0.65969276 -0.6814351 -0.4110969
-0.39543253 -0.53895 -0.04828933 -0.03303475 0.00056856126 -0.6752956 -0.4461294 -0.48473802
-0.6433817 -0.70129687 -0.0058236346 -0.6019404 -0.040184535 -0.59796643 -0.5141517 -0.609428
0.034349322 -0.6632112 -0.41669923 0.0037325993 -0.70199907 -0.7014641 -0.4382572 -0.59166616
-0.49832076 -0.46255627 -0.4717429 -0.64142424 -0.69019705 -0.49131703 -0.6496714 -0.6313436
-0.49512202 -0.6413646 -0.6693539 -0.7075317 0.5268137 -0.66443884 -0.3938179 0.049038745
0.5473631 -0.48866248 -0.5118683 -0.0066524893 -0.43550712 -0.68818855 -0.6370692 -0.5131695
-0.48608324 0.006823316 -0.70735633 0.046385325 -0.7005859 -0.5172045 -0.39690137 -0.7044904
-0.67502 -0.050087236 -0.45367602 0.005129881 0.24746378 0.0024543554 -0.49410298 -0.04368773
-0.44765738 -0.40603238 -0.48660114 -0.4455537 -0.6267195 -0.050966673 -0.39427474 -0.4159978
-0.62475586 0.053246707 -0.4323889 -0.00893341 -0.5040412 -0.053290896 -0.00017198175 -0.6556912
00000000: 61de e1be 9cde 17bd 50d7 e2be 84a1 2ebf
00000010: 21dc ebbe 44e8 f2be 07e0 01bf 5408 103d
00000020: 2a44 6d3d 2e8e f3be 88fb 1c3d e586 1cbf
00000030: 08cd 08bc 71f5 f4be 7d4f 1dbf 3638 e3be
00000040: 2614 24bf 320f d4be c7c9 fcbe 0e20 1a3d
00000050: 4092 a03a 0849 49bd 4283 2cbf 69bb 2ebf
00000060: b5b8 eebe a6ac 6e3d 9607 dcbe 4f65 25bf
00000070: 6d5e cdbe 507d eb3b 74e8 823c a013 25bf
00000080: c5f7 debe 623a 0c3d 488b fdbe 1fbd 103f
00000090: 0519 f2be b028 e6be 8084 b6ba 3028 1cbf
000000a0: 4e13 d9be 2a27 d9be 7ce2 dbbe 7670 21bf
000000b0: 78ea 77bc a81e 3e3d 2dc2 35bf 4f1c d3be
000000c0: e833 f5be 9ce3 a13c ecca e2bc 7427 abbc
000000d0: 835f 01bf f5b5 18bf 4bfa ecbe b8bf 1cbf
000000e0: 780b 3e3d bdaa 20bf 820d d6be 9621 2bbf
000000f0: b544 13bf 7239 30bd 981a ca3c 0e24 29bf
00000100: 1ec7 65bd 169e 643d de29 15bf 28dc 253c
00000110: 7cf2 debe ca67 20bf 7b0b f3be 2e05 23bf
00000120: 58b1 25bc a4d1 30bf 6620 00bf ddd2 f4be
00000130: 105b 273c 0a87 e6be 4b2f f1be 23eb dabe
00000140: ae28 29bf 1857 b1bc c0f2 9cbc 8ec1 2cbf
00000150: 7dca 2bbf 34c0 f0be 8ef1 d43e 8e8e f0be
00000160: 5de4 37bf 0745 2fbf 163a d9be 0af5 cbbe
00000170: 66cd fabe e8c9 89bc dd7c cbbe 22b7 debe
00000180: 21ef dbbe b6c2 33bf 103a 513d f434 1bbd
00000190: e79d 34bf cee4 cebe 184d b7bc 22c7 d9be
000001a0: bafa 413d ace1 b1bc 8ade 1e3d b668 133f
000001b0: 3431 e63c 0bf4 36bf b4d3 ddbe c814 d1bc
000001c0: 30dc cbbb 3492 e93c d7d8 19bf 529f 19bf
000001d0: 1c9c cebc 3192 efbe 843a f7be f587 2cbf
000001e0: b6e5 333d 0f87 28bf 6b40 31bf aeeb d3be
000001f0: 888e 29bf 4799 27bf 1404 49bd 5cd5 cbbe
00000200: 5f5b 1dbf 204b 93bb 2aeb fdbe 94ea 1dbf
00000210: 970a fabe 317f cdbe 8cdb 30bf ec27 78bd
00000220: c46a e33c 8af0 15bf 8027 373d f511 29bf
00000230: 8ae8 2cbf b57f 03bf 900c ec3c 0a4d 03bf
00000240: d057 c73c 12bf 1bbf ae1f 453d fd70 d1be
00000250: 0c84 e9be b2f2 f2be 194b e9be 8fd0 edbe
00000260: a773 cebe 401d 28bf 3b95 00bf a023 8a3c
00000270: 9873 13bf 7512 23bf e8ca 2ebf d465 f7bc
00000280: 846b f43c f8c4 b8bc d081 123d 692f e2be
00000290: 8f42 1dbf 714a 1abf 9b2c 2ebf 3488 2dbf
000002a0: 9899 dabc cfe4 d7be e126 f3be 1dc0 26bf
000002b0: 06c8 28bd a0e1 28bf 8872 2ebf 4b7b d2be
000002c0: 2276 cabe a1f8 09bf 08cb 45bd 724f 07bd
000002d0: 800b 153a 2ce0 2cbf 136b e4be 952f f8be
000002e0: aab4 24bf 3188 33bf 30d4 bebb c418 1abf
000002f0: 8a98 24bd 5414 19bf 729f 03bf 7903 1cbf
00000300: e0b1 0c3d 36c8 29bf 9a59 d5be a09e 743b
00000310: 36b6 33bf 2793 33bf 3f63 e0be 6f77 17bf
00000320: e623 ffbe 2dd4 ecbe 4988 f1be 6134 24bf
00000330: c1b0 30bf e88d fbbe dd50 26bf bc9f 21bf
00000340: a280 fdbe 7830 24bf c75a 2bbf cc20 35bf
00000350: 43dd 063f aa18 2abf 80a2 c9be dadc 483d
00000360: fd1f 0c3f f831 fabe cd09 03bf 20fd d9bb
00000370: cafa debe 202d 30bf f816 23bf 145f 03bf
00000380: e7df f8be 2096 df3b 4e15 35bf 8afe 3d3d
00000390: 9959 33bf 8467 04bf a836 cbbe 7c59 34bf
000003a0: 1cce 2cbf 4628 4dbd 3948 e8be 9018 a83b
000003b0: 2567 7d3e 40d9 203b 11fb fcbe e8f1 32bd
000003c0: 5933 e5be 7ae3 cfbe c923 f9be 9d1f e4be
000003d0: b070 20bf 6ec2 50bd 61de c9be aafd d4be
000003e0: 00f0 1fbf 3819 5a3d 1462 ddbe 705d 12bc
000003f0: d808 01bf 8e47 5abd 0056 34b9 61db 27bf

bias f4 [512]
-0.42112732 -0.95914024 -0.23560268 -0.6681598 -0.54711825 0.24843632 -0.67851704 -0.54123706
-0.64418185 -0.7027866 -0.6587549 -1.1836956 -0.49209738 -0.028123721 -0.026497938 -0.6408373
-0.5548716 -1.107586 -0.6227851 -0.022472158 0.1169957 -0.02976568 -0.036326535 -0.5985136
-0.6386298 -0.66022795 -0.633631 -0.05052288 -0.68844587 -0.47402808 -0.37838075 -0.4773231
-0.58071315 -1.12078 -0.93955874 -0.6512947 -0.6153383 -0.6078502 -0.6367327 -0.9602544
-1.090286 -0.6723108 -0.5661162 -0.9995202 -0.4296887 -0.6068723 -0.6633801 -0.94069356
-0.043064296 -0.64762306 -0.9583674 -0.698083 -0.5950585 -0.6554811 -0.6227965 -0.5818934
-0.6044946 -0.4747255 -1.0267168 -0.56249857 -0.43467954 -0.023902752 -0.55074835 -0.033673756
-0.5553649 -0.586704 -0.6417552 -0.037076257 -1.2844617 -0.63234836 -0.69076556 -0.5824566
-0.67564076 -1.0167801 -1.0274397 -0.6465376 -0.5965341 -0.65833974 -0.54994833 -0.5089106
-0.48843682 -0.9420993 -0.3055788 -0.5413805 -0.5851225 -0.74095184 -0.682024 -0.5097449
-0.69841665 -0.48245928 -0.5527276 -0.60326576 -0.51715916 -0.955569 -0.6862414 -0.5966149
-0.47028762 -0.5665564 -0.19246957 -0.7169276 -0.17905357 -0.87439704 -0.59948117 -0.64793015
-0.69612306 -0.6613781 -0.7448205 -0.8889075 -0.030188352 -0.68463236 -0.5914561 -1.019056
-0.6451058 -0.66581494 -0.037759572 -0.61628944 -0.6176317 -0.70649815 -0.39151785 -0.5944245
-0.68016994 -0.5939277 -0.70845366 -0.6224979 -1.0031219 -0.5365624 -0.035115592 -0.70415896
-0.8802328 -0.060959622 -0.7289511 -0.69629896 -1.0266211 -0.6201745 -0.48796365 -0.46524337
-0.68272704 -0.64038587 0.15805112 -0.4895275 -0.55370426 -0.64477235 -0.5525391 -0.5908903
-0.54147786 -0.6240695 -0.66346806 -0.56491303 -0.98889464 -0.55080175 -0.5534682 -0.6603766
-0.9776905 -0.49567124 -0.48472625 -0.6598807 -0.57249784 -0.40695408 -0.99796957 -1.0006531
-0.20011258 -0.57379967 -0.50804603 -0.3836813 -0.47632143 -0.6292354 -0.33543968 -0.66373914
-1.052847 -0.5602541 -0.55925095 -0.7245712 -0.50637984 -0.9912798 -0.64586693 -0.39383906
-1.0430449 -0.6712565 -0.63597333 -1.1458664 -0.65933704 -0.64970857 -0.5401399 -0.62714875
-0.8562212 -0.5586114 -0.62955636 -0.6170265 -0.5649037 -0.5707547 -0.031206794 -0.6249792
-0.5590563 -0.44163716 -0.61829835 -0.025110237 -0.4129786 -0.48764834 -0.6825851 -0.66748685
-0.9357859 -0.5534133 -0.33960798 -0.023502097 -0.030134201 -1.1824226 -0.5562989 -0.7229167
-0.33618665 -0.46554807 -0.9341566 -0.4766199 -0.5469118 -0.5840016 -0.5916099 -0.6548061
-0.9665226 -0.60802144 -0.5852439 -0.61337113 -0.73084074 -0.34420604 -1.0716076 -0.6393322
-1.0769585 -0.25685197 -0.6553094 -0.019331641 -0.48427415 -0.65623134 -1.042491 -0.033838324
-0.38399833 -0.48592407 -0.6271873 -0.4224541 -0.68523216 -0.031245098 -0.06152682 -0.56498724
-0.605877 -0.59939784 -0.6497868 -0.5084035 -0.6096744 -0.036444575 -0.5288355 -0.05843634
-0.5950483 -1.1128839 -0.57356274 -0.72613317 -0.5105051 -1.1147007 -0.43393838 -0.26733178
00000000: 009e d7be 378a 75bf d441 71be 850c 2bbf
00000010: f10f 0cbf 1766 7e3e 4bb3 2dbf 838e 0abf
00000020: 1ae9 24bf d3e9 33bf 29a4 28bf 5683 97bf
00000030: 30f4 fbbe b863 e6bc 3412 d9bc ea0d 24bf
00000040: 110c 0ebf 61c5 8dbf d86e 1fbf 8817 b8bc
00000050: 719b ef3d 28d7 f3bc 22cb 14bd 3038 19bf
00000060: 3e7d 23bf b304 29bf a435 22bf 14f1 4ebd
00000070: fd3d 30bf cfb3 f2be 1fbb c1be b263 f4be
00000080: 9ea9 14bf b875 8fbf ec86 70bf 40bb 26bf
00000090: d086 1dbf 129c 1bbf ea00 23bf 3bd3 75bf
000000a0: 7e8e 8bbf 901c 2cbf feec 10bf 8ee0 7fbf
000000b0: 2800 dcbe fc5b 1bbf 47d3 29bf 4bd1 70bf
000000c0: 3064 30bd a0ca 25bf 9157 75bf 91b5 32bf
000000d0: c155 18bf 9ccd 27bf 976f 1fbf f7f6 14bf
000000e0: 28c0 1abf 390f f3be 756b 83bf e8ff 0fbf
000000f0: 518e debe b4cf c3bc d8fd 0cbf 7eed 09bd
00000100: 652c 0ebf 3c32 16bf 124a 24bf 46dd 17bd
00000110: 3e69 a4bf 95e1 21bf 03d6 30bf e01b 15bf
00000120: cbf6 2cbf da25 82bf 2583 83bf 7d83 25bf
00000130: 75b6 18bf f488 28bf 6ac9 0cbf f747 02bf
00000140: 6414 fabe 6b2d 71bf d374 9cbe ea97 0abf
00000150: 97ca 15bf 05af 3dbf 2099 2ebf a47e 02bf
00000160: 6fcb 32bf e704 f7be 8e7f 0dbf a06f 1abf
00000170: 8b64 04bf 2ca0 74bf 84ad 2fbf c1bb 18bf
00000180: 8ac9 f0be d709 11bf be16 45be 9188 37bf
00000190: d259 37be 7cd8 5fbf 9977 19bf c0de 25bf
000001a0: 1f35 32bf 1350 29bf 8eac 3ebf 718f 63bf
000001b0: 904d f7bc 1144 2fbf ab69 17bf 6d70 82bf
000001c0: a725 25bf d972 2abf c8a9 1abd 25c5 1dbf
000001d0: 1c1d 1ebf 10dd 34bf 0775 c8be 342c 18bf
000001e0: 9e1f 2ebf a50b 18bf 385d 35bf 065c 1fbf
000001f0: 4c66 80bf 275c 09bf 5ed5 0fbd c343 34bf
00000200: f056 61bf ccb0 79bd 8a9c 3abf a640 32bf
00000210: 5268 83bf c2c3 1ebf 5fd6 f9be 6134 eebe
00000220: 33c7 2ebf 54f0 23bf 27d8 213e 59a3 fabe
00000230: 90bf 0dbf cd0f 25bf 3473 0dbf 9644 17bf
00000240: 4b9e 0abf 05c3 1fbf 0bd9 29bf 249e 10bf
00000250: 3328 7dbf 5801 0dbf 18b0 0dbf 710e 29bf
00000260: ed49 7abf 9fc8 fdbe 0a2e f8be f1ed 28bf
00000270: 388f 12bf 495c d0be ef7a 7fbf 6715 80bf
00000280: 50ea 4cbe 89e4 12bf 4e0f 02bf e071 c4be
00000290: 67e0 f3be 9215 21bf c0be abbe cfea 29bf
000002a0: b1c3 86bf d06c 0fbf 122b 0fbf 807d 39bf
000002b0: 1ca2 01bf 83c4 7dbf 8957 25bf 46a5 c9be
000002c0: 7f82 85bf 77d7 2bbf 26cf 22bf c0ab 92bf
000002d0: 50ca 28bf 4d53 26bf 9c46 0abf d28c 20bf
000002e0: 5031 5bbf 2801 0fbf 9b2a 21bf 73f5 1dbf
000002f0: 879d 10bf fb1c 12bf 64a5 ffbc a3fe 1fbf
00000300: 501e 0fbf 441e e2be cd48 1ebf fcb3 cdbc
00000310: ee71 d3be 0bad f9be e6bd 2ebf 6be0 2abf
00000320: aa8f 6fbf 7eac 0dbf 19e1 adbe 7887 c0bc
00000330: 00dc f6bc a059 97bf 9b69 0ebf 1211 39bf
00000340: a820 acbe 515c eebe e324 6fbf 8607 f4be
00000350: 6902 0cbf 2181 15bf bf73 17bf 5fa1 27bf
00000360: 066e 77bf 4ba7 1bbf 8bd2 15bf e405 1dbf
00000370: 6118 3bbf c63b b0be 702a 89bf 46ab 23bf
00000380: c7d9 89bf 1a82 83be 5bc2 27bf 645d 9ebc
00000390: c8f2 f7be c7fe 27bf 5870 85bf 0e9a 0abd
000003a0: 6e9b c4be 0acb f8be 598f 20bf e74b d8be
000003b0: 606b 2fbf b8f5 ffbc 8c03 7cbd 01a3 10bf
000003c0: c11a 1bbf 2372 19bf 6d58 26bf bb26 02bf
000003d0: 9f13 1cbf e846 15bd c361 07bf f25a 6fbd
000003e0: 1655 18bf fb72 8ebf 02d5 12bf dde3 39bf
000003f0: 76b0 02bf 83ae 8ebf 2c2d debe b6df 88be

weight f4 [128, 512]
0.014233997 -0.018342502 -0.17170687 -0.030647613 -0.02035993 0.39083862 -0.00065406115 -0.036475852
-0.01234694 0.005305034 -0.032858055 -0.013660025 -0.025263853 0.016510101 0.0066422587 -0.0038678425
0.004674012 0.032291833 -0.02342881 0.0025278046 -0.66610956 -0.02963179 -0.0011478009 0.03286745
0.022342581 0.020158427 0.03926524 -0.023601891 0.013583929 -0.013272211 0.008784083 -0.039602727
-0.010067591 0.0020855104 -0.028908575 0.010155156 -0.029108558 -0.01701191 0.0060737613 -0.04314833
-0.005030358 0.011251612 0.012370073 0.015490737 0.038948335 -0.043072615 0.03137716 -0.020329896
0.026152767 0.035720628 -0.033056874 -0.024504472 -0.001666028 0.01159701 -0.018045042 -0.009220381
-0.023465678 0.02512362 -0.02683964 -0.03464978 0.3519477 0.012464461 -0.033722594 -0.009850356
0.0021837547 -0.0043771137 -0.009555154 0.03478422 0.0048573976 -0.020535303 0.17234793 -0.0076384735
0.027734702 -0.031917218 0.038466413 -0.023025323 -0.041448146 -0.0111383265 0.021556495 0.009568667
-0.013281178 0.0108867735 2.0993786 0.021892237 0.0011438812 0.02013407 0.04001791 0.03428279
0.021080742 0.043860808 0.01781405 0.006173844 0.0243603 -0.009259357 -0.024816606 -0.043361664
-0.039541673 -0.020791983 0.16117047 -0.04271262 -0.13386923 0.38413605 0.027888326 -0.0060330946
-0.025140453 -0.035662998 -0.040059358 -0.016784957 0.041485254 0.008692545 -0.040027026 0.03138296
-0.0023247937 0.15284362 0.014165924 -0.038340464 0.033321645 0.018010924 -0.0056657637 -0.013676631
0.00024459398 -0.042225704 -0.014439421 0.032448214 -0.035856325 0.01011822 -0.038871486 0.023152407
0.4564321 -0.020691084 0.031081624 -0.016927028 -0.0031503136 -0.031406786 -0.036656387 -0.031121101
0.009476361 -0.010759805 -0.17732854 0.027725808 -0.0029150972 -0.021659587 0.042158753 -0.038662888
-0.02377676 -0.02632738 0.015904298 0.036958165 -0.0020667182 0.008909011 -0.0064716698 0.036734685
-0.003875903 -0.024328921 0.02510479 -0.01994186 0.028254235 0.22929612 0.029528309 -0.041297656
-0.08075856 -0.02566008 0.03153463 -0.014762587 -0.016351866 0.00911619 0.022777233 -0.00061203545
0.015551813 0.0010544456 0.042129394 -0.03620629 -0.029931953 0.0048935018 0.017993232 -0.012236931
0.033394627 -0.032143213 -0.030269044 0.03755203 -0.02019719 -0.001848977 -0.009124808 -0.01930596
0.0010246742 -0.01391289 -0.036413353 -0.019247117 0.032766923 0.039686706 0.03880334 0.033510804
0.021398965 0.37375098 -0.01042811 -0.034973983 -0.041719504 0.04300339 -0.04180122 0.015739286
0.021798635 -0.00086251943 -0.03916251 0.013659209 -0.016998803 0.02221634 0.03491824 -0.042160507
-0.013240474 -0.027274832 -0.03492209 -0.01199445 -0.018027281 0.02341985 0.027355922 0.0131452065
0.013701198 0.010583796 0.0029101188 -0.035376437 -0.0034426283 0.5500287 0.010555499 -0.03870051
0.035254423 -0.101734824 0.020488841 -0.006779526 0.004892248 -0.034433786 0.03356849 0.036516957
-0.028808577 0.02377532 -0.03668111 -0.00048543158 -0.023389705 -0.020611294 -0.015621908 0.10777446
-0.01728242 0.042687833 -0.0211013 0.031636603 0.0076004835 0.026199829 -0.0011936198 -0.02593305
-0.027088648 -0.041844834 0.03039905 0.023224747 -0.017575473 0.025397453 -0.022918802 -0.00922604
00000000: b635 693c 0443 96bc edd3 2fbe b410 fbbc
00000010: dec9 a6bc 001c c83e 4d75 2bba b467 15bd
00000020: d24a 4abc dad5 ad3b 2b96 06bd 4cce 5fbc
00000030: 24f6 cebc 3140 873c 4ea7 d93b a17b 7dbb
00000040: 7428 993b 7144 043d c7ed bfbc 86a9 253b
00000050: 2886 2abf 5ebe f2bc cf71 96ba 05a0 063d
00000060: ca07 b73c 4923 a53c 97d4 203d c158 c1bc
00000070: 218f 5e3c b073 59bc 1deb 0f3c 7836 22bd
00000080: 8af2 24bc 0fad 083b add1 ecbc d061 263c
00000090: 1275 eebc 905c 8bbc 6706 c73b 4ebc 30bd
000000a0: b4d5 a4bb ae58 383c d9ab 4a3c dccc 7d3c
000000b0: 4a88 1f3d e96c 30bd 5685 003d e28a a6bc
000000c0: 543e d63c cb4f 123d a566 07bd 9abd c8bc
000000d0: a05e daba 6301 3e3c 32d3 93bc 1511 17bc
000000e0: 183b c0bc 0dd0 cd3c cede dbbc edec 0dbd
000000f0: 7d32 b43e bd37 4c3c b420 0abd 6363 21bc
00000100: 531d 0f3b e46d 8fbb 388d 1cbc e679 0e3d
00000110: ce2a 9f3b a739 a8bc fa7b 303e 294c fabb
00000120: e333 e33c a1bb 02bd f58e 1d3d 9a9f bcbc
00000130: 88c5 29bd 877d 36bc 3f97 b03c e6c5 1c3c
00000140: 4c99 59bc 705e 323c 385c 0640 5957 b33c
00000150: 49ee 953a 35f0 a43c d2e9 233d 1c6c 0c3d
00000160: 85b1 ac3c 64a7 333d c5ee 913c f54d ca3b
00000170: 408f c73c 8fb4 17bc 324c cbbc 009c 31bd
00000180: 73f6 21bd f353 aabc df09 253e 6ef3 2ebd
00000190: 0415 09be 7bad c43e 0f76 e43c 44b1 c5bb
000001a0: 5af3 cdbc 5d13 12bd 4815 24bd 9b80 89bc
000001b0: 71ec 293d 2d6b 0e3c 61f3 23bd 6b8b 003d
000001c0: 915b 18bb 0a83 1c3e 3118 683c e40a 1dbd
000001d0: 477c 083d a58b 933c dfa7 b9bb f313 60bc
000001e0: d93c 8039 dcf4 2cbd 5293 6cbc 6be8 043d
000001f0: 15de 12bd e4c6 253c b537 1fbd 1eaa bd3c
00000200: 78b1 e93e 5980 a9bc e49e fe3c 8daa 8abc
00000210: 7e75 4ebb 67a4 00bd 0225 16bd aef1 febc
00000220: bd42 1b3c e549 30bc 9d95 35be 3c21 e33c
00000230: 370b 3fbb 726f b1bc a8ae 2c3d fa5c 1ebd
00000240: 7bc7 c2bc 85ac d7bc bb49 823c 7261 173d
00000250: c771 07bb 1af7 113c 4d10 d4bb 1c77 163d
00000260: dd02 7ebb 724d c7bc 90a8 cd3c 1d5d a3bc
00000270: 6d75 e73c 9acc 6a3e 5ae5 f13c bb27 29bd
00000280: be64 a5bd 1735 d2bc 752a 013d c7de 71bc
00000290: 59f4 85bc 125c 153c 5297 ba3c 0171 20ba
000002a0: 08cd 7e3c 5335 8a3a df8f 2c3d 0c4d 14bd
000002b0: db33 f5bc ab59 a03b 8b66 933c 697d 48bc
000002c0: cec8 083d 9aa8 03bd c9f6 f7bc 28d0 193d
000002d0: 9474 a5bc 5f59 f2ba 3880 15bc 8827 9ebc
000002e0: 5c4e 863a e4f2 63bc 2b26 15bd 21ac 9dbc
000002f0: 9c36 063d 878e 223d 40f0 1e3d a042 093d
00000300: e24c af3c 4a5c bf3e aada 2abc e140 0fbd
00000310: 12e2 2abd 5324 303d c237 2bbd adef 803c
00000320: 0d93 b23c b31a 62ba de68 20bd e0ca 5f3c
00000330: 1341 8bbc 0bff b53c 6e06 0f3d 7fb0 2cbd
00000340: 93ee 58bc 786f dfbc 770a 0fbd 5f84 44bc
00000350: f3ad 93bc fcda bf3c 8719 e03c fe5e 573c
00000360: fd7a 603c a867 2d3c b1b7 3e3b e2e6 10bd
00000370: b89d 61bb aece 0c3f f9f0 2c3c 6d84 1ebd
00000380: f166 103d 595a d0bd 37d8 a73c c926 debb
00000390: 274f a03b 710a 0dbd 1d7f 093d ce92 153d
000003a0: f7ff ebbc 76c4 c23c ee3e 16bd 8681 feb9
000003b0: c49b bfbc 04d9 a8bc 08f3 7fbc dbb8 dc3d
000003c0: dd93 8dbc 70d9 2e3d a2dc acbc 6295 013d
000003d0: 7a0d f93b 06a1 d63c 3c73 9cba 8c71 d4bc
000003e0: 03e9 ddbc 7d65 2bbd 6e07 f93c d341 be3c
000003f0: 70fa 8fbc 520e d03c 36c0 bbbc d128 17bc

bias f4 [128]
-0.75744593 -0.26925012 -0.5355868 -0.294416 -0.23164874 -0.4326472 -0.2593273 -0.19432199
-0.43137375 -0.47330225 -0.49710885 -0.17267306 -0.26595247 -0.27239344 -0.5260738 -0.49993244
-0.4725445 -0.6166591 -0.28414732 -0.4290956 -0.9445483 -0.4164733 -0.4418751 -0.49242637
-0.4850671 -0.2818835 -0.53511786 0.015115681 -0.45192784 -0.4871715 -0.3979108 -0.46462497
0.24191473 -0.48767328 -0.48699373 -0.5615391 -0.5275842 -0.47890487 -0.55170214 -0.35810286
-0.49505243 -0.43631303 -0.34709185 -0.16345957 -0.034112886 -0.63965446 -0.63583344 -0.65526587
-0.19969136 -0.28120002 -0.018221209 0.36731416 -0.24957809 0.10141932 -0.4734884 -0.5130178
-0.26217556 -0.682733 -0.37064362 -0.46287528 -0.17958897 -0.2612302 -1.0315309 -0.010925548
-0.5985844 -0.18008935 -0.5919331 0.03712095 -0.27900654 -0.2413449 -0.44675896 -0.24116443
-0.42937762 -0.32408404 -0.03263325 -0.57339954 -0.4462182 -0.46797144 -0.6021337 -0.53918195
0.04412475 -0.22288918 -0.23428275 -1.0011799 -0.4867232 -0.443457 -0.51610464 -0.50258195
-0.47098956 -0.48758876 -0.59916216 0.06247596 -0.4332436 -0.45073307 -0.22634536 0.02305084
-0.6983041 -0.47198513 -0.63166714 -0.5766645 -0.5854519 -0.47105086 -0.5385776 -0.71360314
-0.4411094 -0.4571732 -0.5058007 -0.47821862 -0.014333421 -0.37923664 -0.026121516 -0.12375253
-0.031877473 -0.9779862 -0.28692275 -0.6155592 -0.1629987 -0.2781561 -0.4809865 -0.45147273
-0.44824234 -0.94120103 -0.29506302 -0.5123186 0.0717546 -0.58755374 -0.051883817 -0.4884822
00000000: fae7 41bf 27db 89be 371c 09bf b2bd 96be
00000010: 5435 6dbe ef83 ddbe 8cc6 84be 58fc 46be
00000020: 05dd dcbe ac54 f2be 0d85 febe 35d1 30be
00000030: ec2a 88be 2777 8bbe c6ac 06bf 25f7 ffbe
00000040: 5af1 f1be 5fdd 1dbf c27b 91be 6bb2 dbbe
00000050: ebcd 71bf fd3b d5be 743d e2be 4f1f fcbe
00000060: b75a f8be 0953 90be 7cfd 08bf c3a7 773c
00000070: 1663 e7be 8b6e f9be f7ba cbbe 53e3 edbe
00000080: 7fb8 773e 50b0 f9be 3e57 f9be 07c1 0fbf
00000090: c20f 07bf 0533 f5be 5a3c 0dbf 4259 b7be
000000a0: 8377 fdbe 6c64 dfbe 06b6 b1be f261 27be
000000b0: f4b9 0bbd 65c0 23bf fbc5 22bf 81bf 27bf
000000c0: e47b 4cbe 73f9 8fbe a544 95bc 9a10 bc3e
000000d0: 6691 7fbe efb4 cf3d 126d f2be 2255 03bf
000000e0: e03b 86be 97c7 2ebf 00c5 bdbe fdfd ecbe
000000f0: 2ce6 37be f7bf 85be 3409 84bf 1201 33bc
00000100: d43c 19bf 5869 38be ed88 17bf 230c 183d
00000110: f2d9 8ebe 1e23 77be 97bd e4be cff3 76be
00000120: 62d7 dbbe 58ee a5be 71aa 05bd 50ca 12bf
00000130: b676 e4be f499 efbe 6f25 1abf d407 0abf
00000140: 27bc 343d 103d 64be d1e7 6fbe aa26 80bf
00000150: c933 f9be cc0c e3be 6f1f 04bf 36a9 00bf
00000160: 8b25 f1be 3ca5 f9be b162 19bf cbe6 7f3d
00000170: 1bd2 ddbe 7cc6 e6be 14c7 67be 1dd5 bc3c
00000180: 0fc4 32bf 09a8 f1be f0b4 21bf 49a0 13bf
00000190: 2de0 15bf 942d f1be 39e0 09bf b2ae 36bf
000001a0: 17d9 e1be 9b12 eabe 287c 01bf 12d9 f4be
000001b0: bad6 6abc 4e2b c2be cafc d5bc f771 fdbd
000001c0: f491 02bd 4e5d 7abf 8ae7 92be 4a95 1dbf
000001d0: 22e9 26be 7a6a 8ebe dd43 f6be 6f27 e7be
000001e0: 0580 e5be 8df2 70bf 8012 97be 5027 03bf
000001f0: 13f4 923d ec69 16bf 2084 54bd 571a fabe

weight f4 [1, 128]
-0.047905214 0.1499168 -0.47475523 0.18177612 0.1854778 0.40528566 0.15003061 -0.32834268
0.40370032 0.42607927 -0.4891948 -0.12699443 -0.036106836 0.19983453 0.2390376 0.2620792
0.43775558 -0.5666625 0.19565015 0.3722621 0.333053 0.38909936 0.4315122 0.41393912
0.23582937 0.18026698 0.4525021 0.54727703 0.38229224 0.39214727 0.37517706 0.44811764
-0.44895446 0.4470953 0.40004915 -0.5092346 -0.5075219 -0.62677664 0.473529 0.21166746
0.42542702 0.38220504 -0.5826672 -0.15028794 0.52155536 -0.6139363 -0.6568156 0.5425267
0.13727942 0.16108702 -0.0264743 -0.904022 0.15286249 0.58591855 0.4299435 0.41735616
-0.20571727 0.09448342 0.3895743 0.39228413 -0.30499464 0.1618476 0.55154145 0.012182399
0.47280774 -0.13107012 0.5222756 -0.4260133 0.20188418 0.16912207 0.40481877 0.20597984
0.2280343 0.20997334 0.51631695 0.53150517 0.37174198 0.43833172 -0.5528741 0.4588534
0.48326913 0.1543179 0.15333477 -0.58196765 0.24881142 0.43455303 0.42693716 0.41466406
0.23736842 -0.48148575 -0.5568984 -0.48111182 0.4405534 0.37609297 -0.3348774 0.0046738447
-0.7116439 0.43040416 -0.54214776 0.48542982 -0.5805104 0.39466798 0.51531667 0.54018444
0.23059538 0.44670698 0.39944687 0.42375028 -0.0037844393 0.20751782 -0.07648693 -0.13544425
-0.025565425 -0.07475158 0.19957559 -0.538654 -0.07338419 0.19653329 0.45540592 0.4268252
0.37350175 0.13503064 0.18120307 0.42853084 0.591474 0.52013946 0.5205145 0.43122894
00000000: 4238 44bd ca83 193e 1e13 f3be 8523 3a3e
00000010: e4ed 3d3e 9a81 cf3e a0a1 193e 881c a8be
00000020: cfb1 ce3e 1027 da3e be77 fabe d40a 02be
00000030: c3e4 13bd 6ca1 4c3e 46c6 743e 3f2f 863e
00000040: 8021 e03e cb10 11bf 8358 483e 2399 be3e
00000050: ec85 aa3e 0838 c73e 2bef dc3e d4ef d33e
00000060: 417d 713e e897 383e 5bae e73e 591a 0c3f
00000070: cfbb c33e 87c7 c83e 3517 c03e ad6f e53e
00000080: 5cdd e5be ade9 e43e 3ed3 cc3e 335d 02bf
00000090: f5ec 01bf 6f74 20bf 6572 f23e 5bbf 583e
000000a0: 92d1 d93e 61b0 c33e ad29 15bf 15e5 19be
000000b0: a784 053f ee2a 1dbf 1125 28bf 08e3 0a3f
000000c0: fa92 0c3e fff3 243e a2e0 d8bc fc6d 67bf
000000d0: fc87 1c3e c2fe 153f 8e21 dc3e b5af d53e
000000e0: 8ca7 52be 8680 c13d 4876 c73e 77d9 c83e
000000f0: 4228 9cbe 61bb 253e d231 0d3f af98 473c
00000100: db13 f23e 3f37 06be dbb3 053f 6a1e dabe
00000110: baba 4e3e 562e 2d3e 6844 cf3e 61ec 523e
00000120: d381 693e 4003 573e 592d 043f b910 083f
00000130: f754 be3e 046d e03e 2889 0dbf d5ee ea3e
00000140: 0d6f f73e 8305 1e3e ca03 1d3e d5fb 14bf
00000150: 6cc8 7e3e bc7d de3e 8297 da3e d94e d43e
00000160: b510 733e 4d85 f6be e590 0ebf 4a54 f6be
00000170: 3790 e13e 428f c03e 0d75 abbe 0d27 993b
00000180: 4b2e 36bf ef5d dc3e 32ca 0abf 428a f83e
00000190: 549c 14bf ec11 ca3e cbeb 033f 8749 0a3f
000001a0: 3221 6c3e c7b6 e43e 4d84 cc3e ccf5 d83e
000001b0: 5b04 78bb 8d7f 543e 2ea5 9cbd e6b1 0abe
000001c0: 956e d1bc 5b17 99bd 8b5d 4c3e 3be5 09bf
000001d0: 734a 96bd 0640 493e f72a e93e d588 da3e
000001e0: 9f3b bf3e 7945 0a3e 4c8d 393e 6568 db3e
000001f0: d76a 173f dc27 053f 7040 053f 0aca dc3e
